data.pth (torch, 5738 bytes, 6 tensors)

l1.weight f4 [8, 51]
00000000: b036 ff3e 7f91 963e 456a 6cbd ee00 01bf
00000010: 12a5 8c3e d0b7 443f c811 c53e 0682 71be
00000020: 96c7 7bbe 4c44 773e 0ec2 bf3d aede 223d
00000030: f03b 82be 9412 6a3e dafd dabd 62e7 1c3f
00000040: 51a1 b4be b1f8 8e3e 26ab b4be 28a2 b4be
00000050: fad2 acbe 4296 ed3b 4528 53be a6a4 de3e
00000060: 7989 8ebc 0181 ea3e 0861 f7bd 425a 6a3e
00000070: a696 013e f3ae ce3e 87df 4ebe abb2 80be
00000080: 629e 47be 88da 3abe 1656 51be f2dc 0a3f
00000090: 64ed 81be 4c56 d33e faf5 17be 91d7 cabd
000000a0: 9538 213f 7bae b53e 78fb 50be 37b0 bcbd
000000b0: 0986 66be c788 6cbe 1dee a5be a937 c9be
000000c0: 0e83 c63e bfca cabd d922 fa3e 6dc1 c93e
000000d0: 6837 953e 92f3 0ebe fdab 9cbe 85c6 923e
000000e0: c2b4 f63c 592b 093f be01 233d 59f2 95bd
000000f0: 810f 063d 6be5 86bd b1df 12bf 002e 473f
00000100: c975 ac3e 7c40 a0be 10c1 253d cabb c5be
00000110: d402 ea3e 2abe c5be 3eba c5be d4c3 c1be
00000120: 0315 9f3d 75c2 88be fd3e adbe 873b 21be
00000130: 588d 7c3e 76a2 c43c cd8a da3e 6c79 aabe
00000140: aaa1 213e 9d41 8cbe a8d4 afbe 9ac5 af3c
00000150: 0f45 b0be 0455 37be 79d9 8fbe 6e8f 2fbf
00000160: 3d6a f03e b7c6 ccbd f389 34be 6308 103f
00000170: 9d49 ed3e 716b 2ebe 743d a53c fab6 4abf
00000180: 41ec 233e e35a ac3e 3f38 68be 4cc7 d73e
00000190: d5ef 00bf f679 a33e 3132 4ebe 6658 013f
000001a0: 765d 3fbe 1286 13be 8a00 033f e343 2b3f
000001b0: 90df 8ebe 05f1 2c3e f177 b0bd 5c05 b2be
000001c0: e91e 19bf 8345 293f b705 6e3d 07e1 953e
000001d0: f631 84bd e180 be3e 4e35 96be a4c7 0abe
000001e0: d4e5 a2be bb68 9abe f01b 873e 3ce7 babe
000001f0: 8190 d53e 7c09 d13e f8de a5be 7926 bbbe
00000200: 1558 b1be 34d5 803e 3aad 173f 5a50 65be
00000210: f81e 813e 66a5 063f f12d b4be 662a 0e3f
00000220: 125b f93e ee3c b33e 023b 27bf 18a3 10be
00000230: 3eca c23d 01e7 02be 7cf6 f0be cf2e e3bd
00000240: 15cc 653e 64fb 85be 73e5 e0be 74e6 25bf
00000250: 7314 29bf 2bbe e13e ef3c c3be 9835 133f
00000260: 1498 33bc 5e7a a2be fc55 123f 9b7a c73c
00000270: 15a7 ac3d 948f 13bf 3dd8 cb3e 7dcb 9b3d
00000280: 20fe cdbe 7246 7c3e 40b9 d13e 271e 863e
00000290: 40f8 293f b71b 923d 56fe 923e da08 b93e
000002a0: 75c6 fe3e 5204 603e 9189 c9bd 6c6f 323e
000002b0: af5a 583e 230e 123f 9316 ca3e 87c7 103f
000002c0: bd98 073f 40df 39be c5d5 5dbe 949b efbd
000002d0: 2403 973e 73db 29bf 5a29 063f 1940 cd3e
000002e0: f50a 68bf 64cd 25bd 521d 1fbf 29f1 60bf
000002f0: 8cf0 863e 469d b9bd 5375 36bd 7c2d dd3e
00000300: 07c5 043f 2b21 1dbf e6cf 4abe 5008 ac3e
00000310: 4c5d 7a3e 2398 753f 652c d63e c892 883e
00000320: d107 d63e 023e a5bd 6039 4a3f b352 22b9
00000330: f6a0 083f 6857 bd3e ad3b 103f dbab 2c3f
00000340: c073 d2be e16c 2ebf a39d 023f 22be d5bd
00000350: 199f 053f 7c3a c33d fb3e 093e d421 0e3d
00000360: e278 193f 4697 0c3f 1619 2b3f 0f15 2ebf
00000370: 1f82 453f 8798 0c3f 7d4a 3b3f e1cb 463f
00000380: 5674 153f 1f51 cb3d 5ddb 173f b97c 2dbf
00000390: 1b03 c83e 9e63 e13e 53d5 ae3e c614 c83e
000003a0: ede7 03bf aedf cabe daa2 dbbb 32cf 013f
000003b0: 6d9e fc3e c653 31bf 7848 ff3e faae 08bf
000003c0: 9373 f93e ba21 113f 7fa3 1ebf 321a e3be
000003d0: b2ca 1a3f b2d2 ce3e a99f 683e ddca bf3e
000003e0: e347 87bf 5f6d 693d 94b2 513e af38 033d
000003f0: 2dc3 173f d3e5 4ebd 3bfc 0c3f e091 b73e
0.4984641 0.2940788 -0.057718534 -0.50392044 0.2746969 0.76842976 0.3849013 -0.23584756
-0.24587855 0.24147147 0.09363185 0.039763145 -0.25436354 0.2285865 -0.106929496 0.6129056
-0.35279325 0.2792411 -0.35286826 -0.35279965 -0.33754712 0.007250578 -0.2062083 0.43484992
-0.017399536 0.45801547 -0.12079054 0.22885993 0.12655124 0.4036785 -0.20202456 -0.25136313
-0.19494012 -0.18247426 -0.20442995 0.54243386 -0.25376427 0.41276777 -0.14839926 -0.09904397
0.6297696 0.3548468 -0.20408428 -0.09213298 -0.22512068 -0.23099051 -0.3240823 -0.39300278
0.38771862 -0.09901952 0.48854712 0.39405385 0.29143834 -0.13960102 -0.30599967 0.28667083
0.030115489 0.5358177 0.039796583 -0.07321615 0.03272963 -0.06586727 -0.57372576 0.77804565
0.33683613 -0.31299198 0.040467322 -0.38619834 0.45705283 -0.38621646 -0.38618654 -0.37844718
0.077676795 -0.2671086 -0.3383712 -0.15745364 0.24663293 0.024003249 0.42684022 -0.33295763
0.15784326 -0.2739381 -0.3434193 0.021456528 -0.34427688 -0.17903525 -0.28095606 -0.6857823
0.46956053 -0.09998839 -0.17630748 0.562628 0.46345225 -0.17033173 0.020170905 -0.7918545
0.16008092 0.3366309 -0.22677706 0.4214424 -0.50365955 0.31928986 -0.20136334 0.5052551
-0.18687996 -0.14406613 0.511727 0.6690046 -0.2790494 0.16888817 -0.08616627 -0.34769714
-0.5981279 0.6612169 0.05811092 0.29273245 -0.06454842 0.37207702 -0.29337543 -0.1355272
-0.3181597 -0.30158028 0.26388502 -0.36504543 0.4171181 0.40827549 -0.32396674 -0.3655279
-0.34637514 0.2516266 0.592487 -0.22393933 0.2521894 0.5259613 -0.351913 0.55533445
0.48702294 0.35007423 -0.65324414 -0.14124715 0.09511231 -0.12783433 -0.47063053 -0.110929124
0.22441132 -0.26168358 -0.43925056 -0.6480477 -0.6604683 0.440904 -0.38132426 0.5750365
-0.010961551 -0.31733984 0.5716245 0.024350455 0.08430306 -0.5764096 0.39813414 0.07607172
-0.40232944 0.24636248 0.40961647 0.2619488 0.66394424 0.071341924 0.28709668 0.36139566
0.49760786 0.21876648 -0.09840692 0.17425317 0.21128343 0.5705282 0.39470348 0.56554455
0.52967435 -0.1815157 -0.21663578 -0.11699596 0.29494584 -0.6635048 0.5240685 0.40087965
-0.9064172 -0.04047908 -0.62154114 -0.8786798 0.26355398 -0.09063201 -0.044545483 0.43198764
0.5186314 -0.61378735 -0.1980587 0.33600092 0.24449652 0.9593527 0.41830745 0.26674485
0.41802838 -0.08068468 0.789938 -0.00015480332 0.53370607 0.36980748 0.5634106 0.6744973
-0.41103935 -0.68134886 0.51021785 -0.104366556 0.5219589 0.095326394 0.13402931 0.03470023
0.5995008 0.54918325 0.66835153 -0.6800088 0.77151674 0.5492024 0.73160535 0.77654845
0.5838064 0.09927582 0.59319097 -0.67768437 0.3906487 0.44021314 0.34147128 0.3907835
-0.51525766 -0.3962378 -0.006702763 0.5070678 0.4933962 -0.69268453 0.49859977 -0.53391993
0.4872099 0.5669209 -0.61968225 -0.44355923 0.6046554 0.40395123 0.22717156 0.3745946
-1.0568813 0.05698907 0.20478278 0.03203648 0.5928219 -0.050512146 0.55072373 0.3585348

l1.bias f4 [8]
00000000: aca7 b43e c6ba c53e 6aa4 f63e 0e1f 1d3f
00000010: c66f 2e3f 88d8 1e3f 7a60 143f d6a6 f73e
0.35284173 0.3861906 0.48172313 0.6137551 0.681393 0.6204915 0.5795971 0.48369473

l2.weight f4 [8, 8]
00000000: f79f 403f e956 823f 1ad0 28bf bd24 9bbf
00000010: b218 7c3f eb39 903e 289f 703f f0c9 4c3f
00000020: d38b 55be d948 613e 3eb4 63bf 7029 4c3f
00000030: b0a6 443f cd37 97bf ce11 aabe 0995 1b3f
00000040: 8741 ea3c b19f 3dbf 4c07 7c3e 9e87 8e3f
00000050: 8ca1 80bf 9c5d f03e 99c4 133d 4d3a 8c3f
00000060: b0e6 7dbf 08eb 84bf 41bf 593f 0877 123f
00000070: 7eb7 8c3f a814 303f 14a1 d2be e32c 6dbf
00000080: f734 a4be 5c1f 133d 7da3 633f 5447 82bf
00000090: df9c 6fbc eb5a 813f 5c6f 26bf 7abf 203f
000000a0: 0eee 39bf 2404 84bf 668b 58bf 9234 90be
000000b0: af63 863f f1ea ec3e 60ba 8fbf 57d3 3c3f
000000c0: 3bdd f63e 39d7 da3e 8266 a33d b312 123f
000000d0: b5d2 4ebf 7890 1b3e 084b eb3c 52c7 29be
000000e0: 330a 1e3f f497 203e 9646 ea3e 8179 21bf
000000f0: 8616 b9be 51f5 8d3f df59 653f 782c 5cbe
0.75244087 1.0182773 -0.6594254 -1.2120587 0.9847518 0.28169188 0.93992853 0.7999563
-0.2085412 0.22000445 -0.889469 0.7975073 0.76816845 -1.1813904 -0.3321671 0.60774285
0.028595699 -0.74071795 0.24612159 1.1135137 -1.00493 0.46946418 0.036076162 1.0955292
-0.99180126 -1.0384226 0.85057455 0.5721288 1.0993497 0.6878152 -0.41138518 -0.92646617
-0.3207166 0.03591858 0.8892134 -1.0178018 -0.014624803 1.0105871 -0.6501367 0.6279217
-0.7262887 -1.0313764 -0.84587705 -0.28165108 1.0499171 0.46272996 -1.1228752 0.7375998
0.4821566 0.42742327 0.07978536 0.5705978 -0.80790263 0.15191829 0.028722301 -0.16579941
0.6173431 0.15682966 0.45756978 -0.63076025 -0.36149997 1.109049 0.8959026 -0.21501338

l2.bias f4 [8]
00000000: 1630 f43e 1a7e 1a3f b4e9 e03e 6de0 603f
00000010: d941 08bf 73f1 233f d946 c83d a1bb fa3e
0.47692937 0.60348666 0.439283 0.87842447 -0.53225476 0.640403 0.09779138 0.48971274

l3.weight f4 [13, 8]
00000000: 0df4 61bd 7de6 f6bd 192c fd3e 996d 5bbf
00000010: b545 553f c49e 003f ddac 6abf a5c0 0cbf
00000020: 12b9 20bf 1f02 21bf 902c 9a3e 3924 9ebe
00000030: 86be 6e3f d1ec 20bf 9d1e c8bb ba64 d43d
00000040: d1fa 193f 3f9c 823f 60c6 99be 46b3 54bf
00000050: c5d4 47bf e61f 97bd 0cbb 4e3e f7ce 43bf
00000060: 7ef0 3dbf 2237 42bf c41f 0bbe cebc 8a3f
00000070: 5e52 5bbf c47a 7abf 9d7f 0ebf f469 0bbf
00000080: 0839 87be 3071 1fbf 28c2 643d a420 aebe
00000090: b825 e1be d0e8 0fbf c719 c83e 434f 853f
000000a0: 6297 e2be 3bd6 6a3f da95 5abf 182a 463f
000000b0: ff0c 17bf 2268 4d3f 7978 07bf 4b44 80bf
000000c0: 290a 063f 2a14 fdbd 9916 e5be 6dc3 05bd
000000d0: 37b5 693e a105 503f 9860 e0be fc24 95be
000000e0: ce02 1abf 19f5 e1be e100 79bf 0591 493f
000000f0: 3295 ed3e 73d6 50bf af7b 72bf 1516 cd3e
00000100: e097 54be e8cd 123f 2c30 d23e 21a2 efbe
00000110: 27b7 31bf ede5 953f 0ee9 3bbf 48ad 70bf
00000120: 9ba6 7dbf e8d8 6cbf 42c2 ef3e cfa7 333e
00000130: 64e2 d33c bce6 5b3f 6394 ccbe 3334 03bf
00000140: 700e 5c3f f76d 03bf 0f79 6cbf ed26 10bf
00000150: 2692 c4be 0d54 44bf 2b20 43bf a0e8 003f
00000160: 36de 6fbf d56e 293f 9d78 983f 4b7e 93bf
00000170: f891 35bf 6d42 463e 750e 15be eb35 ffbe
00000180: 1e29 41bf 983a 12be f750 783f 7eee ff3d
00000190: febc 93bf 9809 28bf f1c5 eb3e d3ab a8bf
-0.055164386 -0.12055681 0.49447706 -0.8571411 0.8330949 0.5024226 -0.9167002 -0.5498145
-0.62782395 -0.6289386 0.30112123 -0.3088701 0.93259466 -0.62861353 -0.006107165 0.103707746
0.6014834 1.0203933 -0.3003416 -0.8308605 -0.78059036 -0.07379131 0.2018854 -0.7648768
-0.74195087 -0.75865376 -0.13586336 1.0838869 -0.8567256 -0.97843575 -0.5566347 -0.54458547
-0.264107 -0.62282085 0.055849224 -0.34009278 -0.4397409 -0.5621462 0.39082167 1.0414814
-0.4425612 0.9173314 -0.85384905 0.7740798 -0.59004205 0.8023702 -0.529182 -1.0020841
0.52359253 -0.123573616 -0.44743803 -0.032657076 0.22823034 0.8125859 -0.43823695 -0.2912978
-0.6016053 -0.44132307 -0.97266966 0.7873691 0.4640289 -0.81577224 -0.94719976 0.4005591
-0.2076106 0.5734544 0.41052377 -0.46803382 -0.69420093 1.1710793 -0.7340249 -0.94014406
-0.99082345 -0.9251847 0.46827894 0.17544483 0.025864787 0.8589895 -0.3995696 -0.51251525
0.8595953 -0.5133967 -0.9237222 -0.56309396 -0.38392752 -0.7669075 -0.7622096 0.5035496
-0.9369844 0.6618474 1.1911808 -1.1522917 -0.70925856 0.19361277 -0.14556296 -0.49845824
-0.75453365 -0.14280164 0.9699854 0.12496661 -1.1542051 -0.6563964 0.46049455 -1.3177437

l3.bias f4 [13]
00000000: 8ae2 70bf 9750 94be ef6c 16bf a55d 8d3e
00000010: 6220 843f 25aa fa3e 8010 5ebf 057a d4be
00000020: f8e7 5abe ba06 33be 87fd 623e 12b5 6ebe
00000030: 9f6e 9a3e
-0.9409567 -0.28967735 -0.5875997 0.27610508 1.0322382 0.48957935 -0.86743927 -0.41499344
-0.21377552 -0.17483035 0.22167026 -0.2331126 0.30162522
