data.pth (torch, 21226 bytes, 6 tensors)

l1.weight f4 [32, 67]
0.19828367 0.2469439 0.25409558 0.26525426 -0.2585025 0.2985012 -0.21373928 0.18958531
-0.055839162 -0.09896422 0.22711061 0.2458003 0.31582966 0.015541043 -0.18872832 -0.16131338
0.10567761 -0.06600372 0.06209589 0.2684803 0.13382657 0.15503164 -0.21162398 0.41629916
-0.18964946 0.17275168 0.4474596 0.3346405 0.29905173 -0.15800874 -0.19866371 0.03874991
0.041466728 -0.04606961 -0.29194543 -0.34938464 0.2975153 -0.12059475 0.15120155 -0.18267141
0.3668125 -0.13697307 -0.068699956 0.28208208 -0.27021715 0.27910957 -0.21062402 -0.34693876
-0.059534315 0.20686266 0.12850693 -0.40700078 -0.20083517 -0.2223501 -0.23213786 0.23834376
0.3516219 0.3323139 0.2669165 0.1823111 0.33579275 0.4057468 0.14789496 0.075406566
0.25432616 -0.185219 -0.13057986 0.13339734 0.18309993 0.04349732 -0.10724509 -0.123251945
-0.29777732 0.20105924 0.15687937 0.18753983 0.102230236 0.17448986 0.004636831 0.27124792
0.05740911 0.053966 -0.1925525 -0.062886536 0.06204111 -0.16383041 0.3728533 0.07333929
0.047966834 0.20797212 -0.16067722 -0.24743274 -0.031099427 -0.21176824 0.29463196 0.282954
-0.06610142 -0.4019731 0.013624555 -0.1617614 0.13123074 -0.2304966 -0.16401741 -0.28879637
-0.049054433 0.11354427 -0.34892634 0.23093288 -0.23595513 0.032384653 0.2290812 0.3493978
-0.314773 0.21735537 -0.36780933 0.22318739 0.034913868 0.09991935 -0.42677823 0.040510245
-0.28260478 -0.12963176 0.18342961 -0.071622215 0.29494488 0.27349323 -0.10032804 0.29296762
0.40926152 0.18131655 0.24860057 0.18043032 0.0062721185 -0.007827832 0.2785923 0.30236349
0.05118885 0.3067342 0.15392523 0.26722524 0.26889756 -0.015872076 0.123104155 0.17493655
-0.035062626 0.25864112 0.4900186 0.19967794 0.19744687 -0.361866 0.0126577085 0.100651234
0.11057465 -0.4974194 0.15064438 0.36807403 0.32236436 0.29736087 0.18107988 0.26909143
0.3465289 0.2644198 -0.10611231 0.18580613 -0.36301056 0.23602758 0.26714933 0.179037
-0.40769565 0.35888967 0.18786955 0.2520526 -0.08145205 0.458623 -0.014606327 0.34773386
0.26274672 -0.19770007 -0.20024031 0.21474577 -0.38383442 -0.33827648 0.107705295 0.032260004
-0.06972623 -0.10023648 0.09297404 0.29790312 0.13658603 -0.019608863 0.34465024 -0.35729417
-0.21718912 0.18166094 -0.09489977 -0.47824854 -0.07743622 0.22757939 -0.027579768 0.25193334
0.13244921 0.09804988 0.24820413 0.055979766 -0.10451022 0.18548284 -0.14709091 -0.16755345
0.33781168 0.08988982 0.036482126 0.2530719 0.0992161 0.3500886 -0.07146163 -0.11592742
0.3267592 0.0062095867 -0.25642985 -0.18547414 0.46683306 0.031535573 0.13826986 -0.18039303
0.2586386 0.05327344 0.26137358 0.21519993 0.36614838 0.30329698 -0.33162257 0.21041037
-0.064951316 0.25179067 -0.074092336 0.35243404 -0.3177401 -0.30763018 0.15631782 0.07482801
0.37349564 0.29096812 0.14916603 -0.08561741 0.24565426 -0.24789478 -0.22154848 -0.26725218
0.21909173 0.085468285 -0.01897372 0.11285983 0.34854126 0.09791811 0.33801416 0.23725201
00000000: e00a 4b3e ddde 7c3e d118 823e 68cf 873e
00000010: 715a 84be 26d5 983e 78de 5abe a722 423e
00000020: 9bb7 64bd c1ad cabd af8f 683e 13b3 7b3e
00000030: 6db4 a13e dc9f 7e3c ff41 41be 562f 25be
00000040: 816d d83d f52c 87bd 4358 7e3d 4076 893e
00000050: d509 093e 9dc0 1e3e f5b3 58be 2a25 d53e
00000060: 7833 42be d1e5 303e 6d19 e53e 0056 ab3e
00000070: 4f1d 993e 0bcd 21be 806e 4bbe 3ab8 1e3d
00000080: 04d9 293d 7db3 3cbd df79 95be 8be2 b2be
00000090: ed53 983e 61fa f6bd 94d4 1a3e 370e 3bbe
000000a0: d9ce bb3e ab42 0cbe 90b2 8cbd 106d 903e
000000b0: e759 8abe 73e7 8e3e d3ad 57be f5a1 b1be
000000c0: 41da 73bd ced3 533e 5297 033e 6862 d0be
000000d0: bca7 4dbe bfaf 63be 8cb5 6dbe 6310 743e
000000e0: c907 b43e 0c25 aa3e 48a9 883e c3af 3a3e
000000f0: 07ed ab3e 0bbe cf3e c771 173e c26e 9a3d
00000100: 0a37 823e 0daa 3dbe bab6 05be 5099 083e
00000110: 8c7e 3b3e 3f2a 323d 50a3 dbbd 846b fcbd
00000120: 4576 98be 79e2 4d3e fca4 203e 710a 403e
00000130: 165e d13d 78ad 323e 8ff0 973b 02e1 8a3e
00000140: d125 6b3d 740b 5d3d 7c2c 45be a8ca 80bd
00000150: d21e 7e3d 29c3 27be a1e6 be3e e932 963d
00000160: df78 443d a5f6 543e 9288 24be 025f 7dbe
00000170: 3ac4 febc c6d9 58be 00da 963e 59df 903e
00000180: 2e60 87bd 6bcf cdbe 8739 5f3c c8a4 25be
00000190: 5a61 063e 4d07 6cbe 2ef4 27be 1edd 93be
000001a0: 4ded 48bd e689 e83d 79a6 b2be ab79 6c3e
000001b0: 399e 71be c5a5 043d 4394 6a3e 45e4 b23e
000001c0: ed29 a1be 6892 5e3e 8151 bcbe 3c8b 643e
000001d0: d801 0f3d 84a2 cc3d ad82 dabe 12ee 253d
000001e0: 93b1 90be 30be 04be f9d4 3b3e abae 92bd
000001f0: 0403 973e 4e07 8c3e ca78 cdbd daff 953e
00000200: ba8a d13e 0cab 393e 2691 7e3e bac2 383e
00000210: 5886 cd3b 4f40 00bc a6a3 8e3e 63cf 9a3e
00000220: 66ab 513d 440c 9d3e 939e 1d3e bfd1 883e
00000230: f1ac 893e 2806 82bc 081e fc3d 9122 333e
00000240: d49d 0fbd 9c6c 843e b8e3 fa3e 6078 4c3e
00000250: 832f 4a3e 8046 b9be 4762 4f3c 3c22 ce3d
00000260: f674 e23d c1ad febe 8542 1a3e 3374 bc3e
00000270: f10c a53e af3f 983e 016d 393e 5ac6 893e
00000280: 3c6c b13e 0862 873e 6951 d9bd f643 3e3e
00000290: 85dc b9be 37b1 713e ccc7 883e 7a55 373e
000002a0: 7cbd d0be 63c0 b73e e060 403e 0a0d 813e
000002b0: 55d0 a6bd a2d0 ea3e 604f 6fbc 2c0a b23e
000002c0: bd86 863e e371 4abe cc0b 4dbe 51e6 5b3e
000002d0: f285 c4be 9332 adbe 9894 dc3d 1123 043d
000002e0: a0cc 8ebd c948 cdbd 2c69 be3d c286 983e
000002f0: 35dd 0b3e c4a2 a0bc ff75 b03e 43ef b6be
00000300: d366 5ebe 5305 3a3e d05a c2bd fedc f4be
00000310: e296 9ebd 920a 693e f7ee e1bc 68fd 803e
00000320: c4a0 073e 60ce c83d 3929 7e3e 0a4b 653d
00000330: 7409 d6bd 37ef 3d3e 009f 16be 2293 2bbe
00000340: a7f5 ac3e 2718 b83d 486e 153d a492 813e
00000350: d031 cb3d d03e b33e 7a5a 92bd 5b6b edbd
00000360: fb4c a73e ca79 cb3b c64a 83be efec 3dbe
00000370: be04 ef3e 722b 013d 9d96 0d3e f3b8 38be
00000380: 476c 843e 4035 5a3d c2d2 853e 5f5d 5c3e
00000390: cd77 bb3e be49 9b3e 6fca a9be d175 573e
000003a0: 3205 85bd b5ea 803e b9bd 97bd 3c72 b43e
000003b0: d5ae a2be b481 9dbe c711 203e 6d3f 993d
000003c0: d23a bf3e c6f9 943e fbbe 183e 2e58 afbd
000003d0: ca8c 7b3e 21d8 7dbe 9bdd 62be 47d5 88be
000003e0: 9559 603e ff09 af3d c66e 9bbc 0e23 e73d
000003f0: 0074 b23e 4a89 c83d 3110 ad3e 31f2 723e

l1.bias f4 [32]
0.25739428 0.28501996 0.33695486 0.22588298 0.31094375 0.24896759 0.22294858 0.23169193
0.21781911 0.24441472 0.33367768 0.17439035 0.12917918 0.32271156 0.184186 0.19009055
0.33844453 0.23621614 0.21914786 0.27989846 0.18479237 0.1371677 0.18959416 0.21052317
0.26678747 0.20522672 0.31497073 0.23897229 0.1735349 0.37144294 0.21964034 0.18894257
00000000: 2fc9 833e 23ee 913e 5985 ac3e de4d 673e
00000010: 0534 9f3e 5cf1 7e3e a24c 643e a640 6d3e
00000020: f90b 5f3e da47 7a3e cdd7 aa3e 6293 323e
00000030: 8c47 043e 733a a53e 419b 3c3e 19a7 423e
00000040: 9a48 ad3e a5e2 713e 4c68 603e da4e 8f3e
00000050: 363a 3d3e b175 0c3e f924 423e 6393 573e
00000060: 5e98 883e f426 523e d843 a13e 27b5 743e
00000070: 22b3 313e c52d be3e 66e9 603e 297a 413e

l2.weight f4 [32, 32]
0.37180355 -0.4195768 -0.12466239 0.37959644 -0.4062479 -0.031292386 0.35827625 0.30403936
0.39928228 0.1443982 0.14607209 -0.2121774 -0.44552585 -0.090402804 -0.03695468 -0.1691174
-0.43559992 0.3511986 0.26365733 -0.19334368 0.06995547 0.3679788 -0.059742894 0.49171472
-0.41062087 0.34829703 0.3224645 0.3168085 0.3389184 0.104249015 0.09943367 0.22978856
0.33868504 -0.28535458 0.4679496 0.11885071 0.3352706 -0.052101947 0.17739649 0.21701206
-0.03922233 -0.21587335 0.42485482 0.2866398 -0.38375914 -0.31146973 -0.41744518 0.34814692
0.35068858 -0.06792694 -0.16604455 -0.277308 -0.3586877 0.22224979 0.35998726 0.3502575
0.16359496 -0.33959895 0.23777822 -0.2898713 0.3183871 0.28051376 -0.1988826 0.36790884
-0.45386094 -0.4286712 0.40623352 0.13692874 0.27378568 0.17637846 0.038384188 0.3934613
-0.12214059 0.16374175 0.15274033 -0.41326547 -0.43511114 0.30777657 0.23808356 0.34367022
0.015270512 0.47925937 -0.37005952 0.012908567 -0.2988503 -0.12794434 0.4371989 -0.01588602
0.29489368 0.32343674 0.43952754 -0.088547856 -0.05781938 0.21721327 0.009089971 0.46671218
0.21584521 0.22149117 0.26332304 0.23675583 0.26781765 -0.066064574 0.3373696 -0.29688078
0.13361113 -0.3266701 -0.29270443 0.085860424 0.3118344 0.40213352 -0.3670356 -0.2923538
0.41464803 -0.44316638 -0.12656334 -0.2562767 0.2082251 0.32855594 0.3791255 0.33162078
0.4541799 -0.28190768 -0.013095877 0.2431341 0.11395328 0.43968663 -0.1495291 -0.13838054
-0.4769749 -0.22110175 -0.32457995 0.21294683 -0.27813745 0.35387823 -0.45331398 0.09684999
0.49545288 0.3272312 0.0864181 -0.46207687 0.14650811 -0.10032988 0.30582178 0.10749105
-0.15965787 0.2888533 0.2062779 0.059373897 -0.2666094 0.09245049 0.19124722 0.17684793
0.4393423 0.38887632 0.21064533 -0.27738854 0.31033018 -0.26019037 0.44180372 -0.18244198
0.23976478 -0.39732245 0.18904184 0.26035833 -0.17581509 0.42101854 -0.19207942 0.3107906
0.3862837 0.0054661827 0.39410874 -0.49231637 -0.38052884 -0.5527756 -0.52200675 0.38704816
-0.31385237 0.25247306 0.41313288 0.06324721 0.35839418 0.21277727 0.1661402 0.10122518
-0.17116837 -0.17492409 0.15733552 -0.15740408 0.041075062 -0.2660766 0.13639444 0.24712281
0.39144707 0.16149525 0.39312166 0.4981862 0.30574042 0.26049975 0.49617273 0.2618112
0.001191933 0.19584735 0.0023721391 0.24125312 0.3218384 0.29112908 0.3605689 0.24986118
0.05205408 -0.3008793 -0.21565263 -0.33103582 -0.33690363 0.17688696 0.23645084 -0.38990545
0.08288815 0.22015676 0.16500546 0.25892413 -0.47561336 0.20902738 -0.25618163 -0.11819188
-0.08654617 -0.078563824 0.4152141 -0.29918402 -0.11271321 0.33162564 -0.30073443 -0.18719374
-0.17051509 0.4882816 0.2639348 -0.199233 -0.16374561 -0.0421736 0.41358462 0.4438158
0.11302492 0.4191129 0.23261972 0.36095655 -0.26577547 -0.375126 0.42504436 0.45622107
0.42296028 0.032261826 0.10776026 -0.37800157 0.31138638 0.42765754 -0.29889378 0.4504569
00000000: 095d be3e c5d2 d6be ff4e ffbd 775a c23e
00000010: baff cfbe 722c 00bd fc6f b73e 0cab 9b3e
00000020: ba6e cc3e 1fdd 133e ec93 153e 0845 59be
00000030: f71b e4be 1b25 b9bd ca5d 17bd 1d2d 2dbe
00000040: f406 dfbe 4ed0 b33e 18fe 863e e3fb 45be
00000050: d044 8f3d b867 bc3e f7b4 74bd 08c2 fb3e
00000060: e63c d2be fd53 b23e 111a a53e b934 a23e
00000070: b686 ad3e 8280 d53d e1a3 cb3d b14d 6b3e
00000080: 2068 ad3e ff19 92be 1797 ef3e 0068 f33d
00000090: 97a8 ab3e da68 55bd 6da7 353e 6938 5e3e
000000a0: 98a7 20bd e70d 5dbe 9286 d93e 74c2 923e
000000b0: 147c c4be f678 9fbe 60bb d5be 5040 b23e
000000c0: 748d b33e 481d 8bbd 9507 2abe 50fb 8dbe
000000d0: eaa5 b7be 7395 633e 4050 b83e f354 b33e
000000e0: 7085 273e eadf adbe 227c 733e 036a 94be
000000f0: a203 a33e 809f 8f3e e1a7 4bbe 8c5e bc3e
00000100: 7660 e8be cb7a dbbe d7fd cf3e 0c37 0c3e
00000110: a32d 8c3e 8e9c 343e bd38 1d3d c273 c93e
00000120: d824 fabd ebab 273e f667 1c3e 8897 d3be
00000130: e3c6 debe e494 9d3e 2dcc 733e 8bf5 af3e
00000140: 2b31 7a3c 7c61 f53e 7178 bdbe 747e 533c
00000150: e802 99be d703 03be 89d8 df3e 6623 82bc
00000160: 4efc 963e 8099 a53e c109 e13e 9458 b5bd
00000170: 04d4 6cbd 286d 5e3e 1aee 143c e6f4 ee3e
00000180: 8706 5d3e 95ce 623e 47d2 863e 1f70 723e
00000190: 651f 893e dd4c 87bd b5bb ac3e c200 98be
000001a0: 5bd1 083e 4e41 a7be 5bdd 95be 97d7 af3d
000001b0: c2a8 9f3e 72e4 cd3e 17ec bbbe 66af 95be
000001c0: bf4c d43e b4e6 e2be d299 01be b336 83be
000001d0: f638 553e 7c38 a83e bd1c c23e 33ca a93e
000001e0: 458a e83e 3456 90be 1790 56bc 25f8 783e
000001f0: 5660 e93d 9b1e e13e 281e 19be a1b3 0dbe
00000200: 0e36 f4be 7f68 62be 582f a6be bc0e 5a3e
00000210: 0868 8ebe 872f b53e c518 e8be 4a59 c63d
00000220: 00ac fd3e d98a a73e f9fb b03d 5795 ecbe
00000230: 3906 163e c179 cdbd ac94 9c3e 4524 dc3d
00000240: 5a7d 23be 94e4 933e 843a 533e 0b32 733d
00000250: 0781 88be af56 bd3d 50d6 433e a017 353e
00000260: 79f1 e03e cc1a c73e 69b3 573e df05 8ebe
00000270: 99e3 9e3e ac37 85be 1934 e23e 12d2 3abe
00000280: e684 753e d96d cbbe 2f94 413e b04d 853e
00000290: df08 34be be8f d73e 78b0 44be f21f 9f3e
000002a0: fac6 c53e aa1d b33b 9fc8 c93e e410 fcbe
000002b0: add4 c2be b482 0dbf 3ca2 05bf 2d2b c63e
000002c0: 42b1 a0be 2644 813e 2786 d33e c187 813d
000002d0: 717f b73e 49e2 593e a820 2a3e 264f cf3d
000002e0: c346 2fbe 4d1f 33be 901c 213e 892e 21be
000002f0: 533e 283d 313b 88be fcaa 0b3e c30d 7d3e
00000300: c06b c83e 035f 253e 3e47 c93e 4312 ff3e
00000310: 028a 9c3e 3960 853e 5a0a fe3e 1e0c 863e
00000320: a33a 9c3a 358c 483e e475 1b3b 0f0b 773e
00000330: 01c8 a43e df0e 953e 7d9c b83e 9cdb 7f3e
00000340: a936 553d da0c 9abe 0bd4 5cbe 877d a9be
00000350: a27e acbe db21 353e 2b20 723e b0a1 c7be
00000360: 43c1 a93d c670 613e 31f7 283e b491 843e
00000370: 9883 f3be 460b 563e 3d2a 83be 960e f2bd
00000380: 1e3f b1bd 12e6 a0bd f196 d43e a62e 99be
00000390: 2fd6 e6bd d6ca a93e ddf9 99be b7af 3fbe
000003a0: 829b 2ebe 0c00 fa3e 7622 873e bc03 4cbe
000003b0: eeac 27be 3abe 2cbd 5dc1 d33e d33b e33e
000003c0: 9c79 e73d f795 d63e dd33 6e3e 4ccf b83e
000003d0: b913 88be 8410 c0be 6a9f d93e cf95 e93e
000003e0: 408e d83e fa24 043d 69b1 dc3d 6c89 c1be
000003f0: 096e 9f3e eef5 da3e 9b08 99be 49a2 e63e

l2.bias f4 [32]
0.13975136 0.12658465 0.3839657 0.33535728 0.16124742 0.021994783 0.16804287 0.4080441
0.24383217 -0.20361222 -0.017105663 -0.1345502 0.37096915 0.36267617 0.27216613 0.2043367
0.31511652 0.36191273 0.08296048 0.23603943 0.3266087 -0.15940589 0.28233266 0.28340954
0.34749475 0.18444063 0.08540972 0.30306065 -0.14178434 0.2534111 0.29394856 -0.11384005
00000000: fb1a 0f3e 689f 013e 2797 c43e f3b3 ab3e
00000010: 0b1e 253e 672e b43c 6e13 2c3e 28eb d03e
00000020: 24af 793e b97f 50be 2d21 8cbc 87c7 09be
00000030: abef bd3e b1b0 b93e 5c59 8b3e a43d 513e
00000040: f456 a13e a04c b93e 2fe7 a93d 52b4 713e
00000050: 4139 a73e 4c3b 23be e88d 903e 0e1b 913e
00000060: d5ea b13e 01de 3c3e 4beb ae3d c42a 9b3e
00000070: ea2f 11be 1abf 813e 6d80 963e f924 e9bd

l3.weight f4 [33, 32]
0.22191693 -0.43565822 -0.3261986 -0.32140708 0.34659255 0.48285562 -0.3937611 -0.1868125
-0.15402606 -0.32172462 -0.27796185 0.23508655 -0.248674 -0.27730942 0.32918006 0.45121872
-0.0903022 0.25788614 0.06416804 -0.40336782 0.3408972 0.15422672 -0.14861497 -0.22903062
-0.34137878 0.13391113 -0.30271155 -0.13176416 -0.060386125 -0.28212637 0.35540125 0.13638157
0.37384275 -0.40167105 -0.19974072 -0.2794482 0.15411104 -0.015290671 0.09484243 -0.3938221
-0.16140617 0.15921606 0.34871063 -0.46179816 0.23827775 -0.303271 0.33776373 0.3395029
-0.16543512 0.33200938 -0.2638654 0.23371711 -0.30220094 -0.17183375 -0.29703245 -0.34334618
0.28975037 -0.2905538 -0.4602843 -0.33162287 0.009737195 -0.30855083 0.24310441 -0.17017284
0.39878938 -0.2573036 0.3774844 -0.38454247 0.16779026 0.122565426 0.32902357 -0.03166271
0.1932327 -0.1983058 0.057817947 -0.2325179 -0.3072357 -0.42381573 0.439439 0.15122978
-0.42682308 0.3719508 -0.46918187 -0.08072198 -0.33078828 -0.101855405 0.022482712 -0.43584615
-0.1754815 -0.2901873 -0.06576889 0.24233744 -0.13938764 -0.1569889 -0.30696458 -0.08307612
0.16868103 0.33672035 -0.3884419 -0.10597732 -0.41486531 0.123875566 -0.29703692 0.18429926
0.051592324 0.31131932 -0.21566547 0.31455413 -0.29617038 -0.06828857 -0.22566417 -0.007878235
0.22993575 -0.45170674 0.35332498 -0.40004677 0.054849617 0.019130444 0.113989 0.31526944
-0.35567394 -0.3927588 0.038073808 0.21773334 -0.049117763 0.3683826 -0.09992394 0.007302492
0.3374998 0.18778825 -0.43728074 0.3934333 -0.24537681 -0.52083564 -0.119583644 -0.24008828
-0.0017224296 0.39189276 0.18689571 0.22370379 0.27819124 0.38463548 -0.27079186 -0.35397598
0.22600672 -0.34247884 -0.02669151 -0.23422551 -0.19524331 0.08085181 -0.36411694 0.21604964
-0.26068327 -0.44321132 0.23045477 -0.18937905 -0.13353598 0.25790727 -0.4298645 0.09635469
-0.23747186 0.3356855 -0.07228712 0.31178236 -0.39193043 -0.5236779 -0.03170354 0.08868697
0.24744804 -0.26650992 0.12598579 0.12579302 -0.2843874 -0.31576535 -0.41884357 -0.32069808
0.26479352 -0.23997955 0.2763321 -0.32240713 -0.33942345 -0.11468045 -0.35474283 0.31933716
-0.4187318 -0.37362722 0.4042626 0.33413604 -0.16207664 0.120072566 -0.26325846 -0.1587917
0.4272183 0.38090432 -0.08389287 0.18486322 -0.2966193 0.34196365 -0.004371767 0.23359066
-0.3230638 -0.45194647 -0.15874115 0.03241039 -0.4604344 -0.14621224 0.47761542 -0.24448928
-0.049290583 -0.28666037 -0.0987751 0.51125026 -0.060211923 -0.16786095 0.09563077 -0.11912182
-0.1047646 0.30070835 0.0323269 -0.2508188 -0.07474007 -0.043072924 0.21327816 0.12183735
0.30037048 0.33124366 0.13520174 0.4904477 -0.3699206 -0.21901803 0.28013012 -0.31052738
-0.41358867 -0.4606632 0.1634309 -0.2397615 0.14145061 -0.006528608 0.024417864 -0.44570422
-0.29961762 -0.3620671 -0.5532667 0.41708165 -0.3258786 -0.12163427 -0.35407543 -0.19357641
0.18368843 0.3579734 0.20178102 -0.44457063 0.15743698 -0.25719073 0.21077307 0.08122616
00000000: 313e 633e 980e dfbe 8103 a7be 788f a4be
00000010: 9474 b13e da38 f73e 0e9b c9be c74b 3fbe
00000020: 02b9 1dbe 17b9 a4be 0451 8ebe 87ba 703e
00000030: 66a4 7ebe 80fb 8dbe 4a8a a83e 2406 e73e
00000040: 5cf0 b8bd a709 843e 896a 833d 3a86 cebe
00000050: 148a ae3e 9ced 1d3e 862e 18be 0187 6abe
00000060: 33c9 aebe 0020 093e 02fd 9abe 2fed 06be
00000070: 7157 77bd de72 90be 27f7 b53e 9ca7 0b3e
00000080: 5168 bf3e d4a7 cdbe d588 4cbe d613 8fbe
00000090: 49cf 1d3e b985 7abc bf3c c23d 0da3 c9be
000000a0: a947 25be 8909 233e 338a b23e cf70 ecbe
000000b0: 15ff 733e 5646 9bbe 5eef ac3e 53d3 ad3e
000000c0: d367 29be 22fd a93e 5e19 87be 8a53 6f3e
000000d0: 15ba 9abe 30f5 2fbe a314 98be 12cb afbe
000000e0: 295a 943e 78c3 94be 62aa ebbe 79ca a9be
000000f0: c288 1f3c 60fa 9dbe 5df0 783e ca41 2ebe
00000100: 1f2e cc3e 4cbd 83be a345 c13e c0e2 c4be
00000110: 36d1 2b3e 9503 fb3d c775 a83e c2b0 01bd
00000120: cbde 453e ad10 4bbe 83d2 6c3d 2c19 6ebe
00000130: ff4d 9dbe 60fe d8be 26fe e03e fbdb 1a3e
00000140: 8e88 dabe 5670 be3e 9b38 f0be 9151 a5bd
00000150: 155d a9be 9199 d0bd aa2d b83c 3a27 dfbe
00000160: 6cb1 33be 6e93 94be d7b1 86bd 4e27 783e
00000170: a2bb 0ebe b3c1 20be 762a 9dbe d023 aabd
00000180: b8ba 2c3e 9c66 ac3e dbe1 c6be a30a d9bd
00000190: 3a69 d4be 79b2 fd3d 3915 98be f2b8 3c3e
000001a0: 7952 533d 3f65 9f3e 69d7 5cbe 3d0d a13e
000001b0: a5a3 97be e1da 8bbd 8214 67be b613 01bc
000001c0: 4774 6b3e 1b46 e7be 03e7 b43e eed2 ccbe
000001d0: fea9 603d 73b7 9c3c 1173 e93d ff6a a13e
000001e0: e51a b6be ae17 c9be 48f3 1b3d 7df5 5e3e
000001f0: b52f 49bd a59c bc3e eca4 ccbd be49 ef3b
00000200: c6cc ac3e 904b 403e 43e3 dfbe 1770 c93e
00000210: 0f44 7bbe 7c55 05bf 45e8 f4bd b4d9 75be
00000220: 26c3 e1ba 2ba6 c83e 9761 3f3e 9b12 653e
00000230: 156f 8e3e f1ee c43e 3ba5 8abe 573c b5be
00000240: 4e6e 673e 6359 afbe 27a8 dabc d0d8 6fbe
00000250: dded 47be a295 a53d 896d babe 1e3c 5d3e
00000260: 4778 85be 98ec e2be 56fc 6b3e 95ec 41be
00000270: a8bd 08be 6c0c 843e 3317 dcbe 9c55 c53d
00000280: d32b 73be f8de ab3e 450b 94bd f0a1 9f3e
00000290: 1bab c8be c10f 06bf 92db 01bd 84a1 b53d
000002a0: 0563 7d3e fd73 88be 6b02 013e e3cf 003e
000002b0: 3a9b 91be ffab a1be aa72 d6be 8a32 a4be
000002c0: 0493 873e 33bd 75be 677b 8d3e 8c12 a5be
000002d0: e9c8 adbe 95dd eabd daa0 b5be 2980 a33e
000002e0: 0464 d6be 114c bfbe 82fb ce3e e113 ab3e
000002f0: 6bf7 25be 9be8 f53d d0c9 86be 4b9a 22be
00000300: 5bbc da3e e405 c33e 06d0 abbd c94c 3d3e
00000310: 7cde 97be dc15 af3e 0a41 8fbb 6432 6f3e
00000320: 9e68 a5be 8765 e7be 0a8d 22be c2c0 043d
00000330: 0fbe ebbe a9b8 15be 028a f43e 665b 7abe
00000340: ece4 49bd 26c5 92be 9a4a cabd 4ce1 023f
00000350: c7a0 76bd bee3 2bbe 11da c33d 24f6 f3bd
00000360: d38e d6bd 72f6 993e 3669 043d 526b 80be
00000370: 5211 99bd 3c6d 30bd 9765 5a3e dc85 f93d
00000380: 29ca 993e c598 a93e 5372 0a3e f61b fb3e
00000390: 3c66 bdbe 4346 60be 376d 8f3e 72fd 9ebe
000003a0: e5c1 d3be 0cdc ebbe 6e5a 273e 0a84 75be
000003b0: 6ed8 103e efed d5bb f907 c83c 5833 e4be
000003c0: 7b67 99be dc60 b9be e3a2 0dbf ba8b d53e
000003d0: 8fd9 a6be 631b f9bd 6049 b5be e538 46be
000003e0: d218 3c3e 4a48 b73e af9f 4e3e c39e e3be
000003f0: 2937 213e 81ae 83be e5d4 573e e759 a63d

l3.bias f4 [33]
-0.09459899 0.13099678 0.112109795 0.045901984 -0.009473474 -0.03052999 -0.25366378 0.12896912
-0.082729824 0.08232931 0.09541033 0.22241758 0.068235606 0.06947387 -0.10528339 0.10901829
-0.029466068 -0.14009994 0.17717648 -0.04077834 -0.113357596 -0.27661985 -0.11632345 -0.23626326
-0.02647429 -0.23559792 0.26199058 -0.08610337 0.01579549 0.018317156 -0.3399802 0.14740236
-0.015602969
00000000: 1ebd c1bd 0524 063e d299 e53d b803 3c3d
00000010: a136 1bbc 081a fabc 38e0 81be 7b10 043e
00000020: 416e a9bd 459c a83d 7e66 c33d 6fc1 633e
00000030: 1cbf 8b3d 5148 8e3d d19e d7bd fb44 df3d
00000040: d362 f1bc 5c76 0fbe c06d 353e 3007 27bd
00000050: 0728 e8bd 1ea1 8dbe fd3a eebd ffee 71be
00000060: 9ce0 d8bc 9540 71be a123 863e f756 b0bd
00000070: 8b65 813c dc0d 963c e311 aebe a5f0 163e
00000080: 98a3 7fbc
