data.pth (torch, 72362 bytes, 6 tensors)

l1.weight f4 [32, 413]
0.2748516 -0.11357359 -0.120849065 -0.056035347 -0.004287988 0.26124582 -0.009162566 0.26562145
-0.07289113 -0.24916103 -0.13004719 -0.23114519 -0.44691518 0.218543 -0.20326795 0.36124218
0.40613487 0.23444968 0.15291344 0.26008713 -0.38231406 0.014130301 -0.06215279 0.23908027
-0.24493228 0.17724453 0.14052878 -0.23571073 0.11207223 0.28824154 0.06065215 -0.13037048
-0.16493182 0.13251673 0.3005539 -0.13094911 0.337706 -0.08507751 -0.24349251 0.34437084
-0.11981086 0.12651253 0.17889382 -0.06727946 0.27709475 0.03954002 -0.233252 0.2819223
-0.15807356 0.005220513 -0.20486026 0.408941 0.171058 -0.3354788 0.33058098 0.018255938
-0.24718155 0.36418253 0.23424509 0.11730716 -0.095424876 0.17505425 0.24915364 0.31240416
0.14102608 0.11792584 0.26203397 0.14556351 -0.0595455 -0.035938695 0.26805487 -0.15309353
-0.1655848 0.26026645 -0.037942603 -0.16393057 0.074792676 -0.24147968 0.14448671 -0.08576817
0.1785171 -0.2727465 0.28630596 -0.20330179 -0.30011374 -0.089138985 -0.033983655 -0.039755277
-0.14954928 -0.1455779 0.18218707 0.35251155 0.22053768 0.34488922 0.0710961 0.44251183
0.32707822 0.29678142 0.20022316 0.25051278 -0.31383988 -0.11623607 -0.24248594 0.2977456
0.22135147 -0.05112836 -0.13715197 -0.022553341 -0.05233696 -0.07417862 0.28867084 0.23670778
-0.2597547 -0.15680456 -0.37639463 -0.11228918 -0.33784044 0.24590944 0.016967306 0.28574982
-0.23483844 0.13240948 0.2804976 -0.20312028 -0.24328816 0.023304049 -0.24365112 0.29072407
0.19698226 0.25499 0.442676 -0.06724268 0.13896099 0.27708325 0.3026592 0.3166367
-0.3361924 0.24050477 0.123740904 -0.00164162 -0.22266363 0.18418789 0.25528714 -0.1494981
0.28809133 0.19070977 -0.15956445 -0.1349697 0.4093842 -0.11705022 -0.33829606 0.36791423
-0.009271753 0.30128372 -0.20537809 -0.012671685 -0.26444232 -0.3382846 -0.27231228 -0.3382837
-0.33829257 0.16160554 -0.25616133 -0.33827648 0.21180835 0.24824609 0.28476542 0.2830026
0.30187348 -0.07222931 -0.011725928 0.3543423 0.2528341 0.12256564 0.12377069 -0.22186203
-0.13723527 -0.05899286 0.34995985 0.19742113 -0.28343707 0.17805867 0.06505087 -0.34450334
-0.31090006 -0.18228975 0.24678326 -0.04836615 0.16724768 0.0056156702 0.27936548 -0.33256084
-0.012624725 0.21662164 0.12114826 0.23582432 -0.19843894 0.27344975 -0.01778765 0.28318575
0.1588168 -0.19994774 0.36526227 0.2639009 -0.3008778 -0.04108797 0.2769871 -0.027350722
0.23747951 0.33515754 0.18061735 -0.32596883 -0.20054582 -0.12651928 -0.034703035 -0.3559206
0.2770861 -0.10455036 -0.042997416 -0.09880781 0.26817727 -0.20331623 0.3079244 -0.041504357
-0.1571557 0.28145066 0.18397465 0.2761975 -0.2642745 0.27634573 0.121559046 0.15542734
-0.071931265 0.3177777 -0.18126382 0.3121109 0.22156377 0.36889964 0.25075737 0.27971935
0.33104542 0.17101666 0.09081364 0.23398721 0.16929223 0.26665848 0.31615818 0.03687692
-0.07148907 0.19151542 0.29861888 0.25943375 0.24592571 -0.03417477 -0.22437313 -0.14264138
00000000: 59b9 8c3e 4599 e8bd b77f f7bd 5285 65bd
00000010: 4082 8cbb 03c2 853e 961e 16bc 89ff 873e
00000020: f247 95bd 1224 7fbe 172b 05be 53b1 6cbe
00000030: 11d2 e4be bcc9 5f3e 7925 50be bcf4 b83e
00000040: e9f0 cf3e 9413 703e 5795 1c3e 242a 853e
00000050: abbe c3be c782 673c ed93 7ebd 75d1 743e
00000060: 87cf 7abe 977f 353e c7e6 0f3e 275e 71be
00000070: 2086 e53d 6594 933e 646e 783d d77f 05be
00000080: e3e3 28be 77b2 073e 33e2 993e 8617 06be
00000090: cde7 ac3e 1e3d aebd 1a56 79be 6051 b03e
000000a0: 655f f5bd 808c 013e f12f 373e d0c9 89bd
000000b0: 5ddf 8d3e b7f4 213d 9dd9 6ebe 1f58 903e
000000c0: 09de 21be d610 ab3b e3c6 51be b760 d13e
000000d0: d429 2f3e e1c3 abbe e941 a93e 7a8d 953c
000000e0: 291d 7dbe 2276 ba3e f2dd 6f3e bc3e f03d
000000f0: 1e6e c3bd 6c41 333e 2222 7f3e 70f3 9f3e
00000100: 2469 103e 1a83 f13d 5129 863e 9a0e 153e
00000110: fbe5 73bd 7434 13bd 7d3e 893e 8dc4 1cbe
00000120: 108f 29be a541 853e b469 1bbd 6add 27be
00000130: e72c 993d 7346 77be 53f4 133e 39a7 afbd
00000140: 30cd 363e 6ea5 8bbe b296 923e 582e 50be
00000150: 82a8 99be 808e b6bd 7232 0bbd 6ed6 22bd
00000160: 7223 19be 5f12 15be 3f8f 3a3e 657c b43e
00000170: a1d4 613e 5295 b03e d59a 913d e990 e23e
00000180: cc76 a73e bcf3 973e 4d07 4d3e 3643 803e
00000190: 9faf a0be 2d0d eebd 3c4e 78be 1c72 983e
000001a0: f6a9 623e f96b 51bd 9171 0cbe c9c1 b8bc
000001b0: 485f 56bd f6ea 97bd aacc 933e 8663 723e
000001c0: 91fe 84be 6091 20be ccb6 c0be dff7 e5bd
000001d0: 6cf9 acbe afcf 7b3e 05ff 8a3c cd4d 923e
000001e0: 7d79 70be 5a96 073e 629d 8f3e c3fe 4fbe
000001f0: 8820 79be 22e8 be3c ae7f 79be c9d9 943e
00000200: b8b5 493e 0d8e 823e 6ea6 e23e 88b6 89bd
00000210: ca4b 0e3e dbdd 8d3e 26f6 9a3e 351e a23e
00000220: 6921 acbe e246 763e df6b fd3d a02b d7ba
00000230: ef01 64be c09b 3c3e ffb4 823e 0816 19be
00000240: b580 933e 6c49 433e dd64 23be 7f35 0abe
00000250: ce9a d13e 07b8 efbd 2435 adbe 415f bc3e
00000260: 8de8 17bc dc41 9a3e a24e 52be e69c 4fbc
00000270: fc64 87be a433 adbe 846c 8bbe 8533 adbe
00000280: af34 adbe ec7b 253e 9427 83be 9332 adbe
00000290: 4ae4 583e 3934 7e3e c6cc 913e b7e5 903e
000002a0: 298f 9a3e f6ec 93bd 1b1e 40bc 5b6c b53e
000002b0: 7973 813e b203 fb3d 7d7b fd3d cd2f 63be
000002c0: 6787 0cbe 7fa2 71bd f02d b33e c428 4a3e
000002d0: aa1e 91be 0355 363e 6439 853d be62 b0be
000002e0: 4b2e 9fbe 2aaa 3abe c0b4 7c3e 961b 46bd
000002f0: fa42 2b3e a803 b83b fe08 8f3e 6a45 aabe
00000300: efd7 4ebc 10d2 5d3e 941c f83d ee7b 713e
00000310: 9433 4bbe 9b01 8c3e 68b7 91bc b9fd 903e
00000320: dfa0 223e 1abf 4cbe a803 bb3e 051e 873e
00000330: a80c 9abe dc4b 28bd 41d1 8d3e 9f0e e0bc
00000340: d42d 733e c599 ab3e c1f3 383e 63e5 a6be
00000350: e25b 4dbe 458e 01be c524 0ebd 3a3b b6be
00000360: 3bde 8d3e 801e d6bd 0f1e 30bd c05b cabd
00000370: 884e 893e 2132 50be 44a8 9d3e 7900 2abd
00000380: 6ced 20be 4d1a 903e da63 3c3e c269 8d3e
00000390: fd4e 87be 307d 8d3e f3f3 f83d 5828 1f3e
000003a0: b350 93bd c2b3 a23e 399d 39be 00cd 9f3e
000003b0: 9de1 623e 6ae0 bc3e 4563 803e 6037 8f3e
000003c0: c97e a93e fe1e 2f3e 80fc b93d 589a 6f3e
000003d0: f15a 2d3e 7687 883e 7cdf a13e 410c 173d
000003e0: dd68 92bd 9e1c 443e 93e4 983e 80d4 843e
000003f0: f3d3 7b3e d8fa 0bbd 12c2 65be 9510 12be

l1.bias f4 [32]
0.33829278 0.24838455 0.30075124 0.39534652 0.30617192 0.30528867 0.35256556 0.30490896
0.28666916 0.34376955 0.2614158 0.29717076 0.3548985 0.3214232 0.32197276 0.27174425
0.24729408 0.3555626 0.33179376 0.27087203 0.3094267 0.29432133 0.2413584 0.27609447
0.3165287 0.29835293 0.2974139 0.26469174 0.313876 0.31066984 0.26289454 0.25271365
00000000: b634 ad3e 8558 7e3e 11fc 993e dc6a ca3e
00000010: 91c2 9c3e cc4e 9c3e 7983 b43e 071d 9c3e
00000020: 4dc6 923e 9002 b03e 4bd8 853e c426 983e
00000030: 42b5 b53e 9591 a43e 9dd9 a43e 1022 8b3e
00000040: a93a 7d3e 4d0c b63e dfe0 a93e bdaf 8a3e
00000050: 2d6d 9e3e 49b1 963e a826 773e 415c 8d3e
00000060: 0d10 a23e b7c1 983e a246 983e ad85 873e
00000070: 5bb4 a03e 1e10 9f3e 1d9a 863e af63 813e

l2.weight f4 [32, 32]
0.4156369 0.2991973 0.19416961 0.3746604 -0.28458259 -0.39129525 0.34949845 0.24184649
-0.12075863 -0.031559136 -0.32797882 0.47862807 0.2139315 0.44604754 0.36819538 -0.13811728
-0.014221508 0.47349757 -0.47303492 -0.26037568 -0.4872968 0.23303603 0.025047958 -0.26172057
0.26438332 0.39898303 -5.9011007e-05 0.1022304 -0.4944016 0.4863136 -0.2541135 0.39880636
0.30055586 0.3194477 -0.27017176 -0.13366833 -0.33341682 0.19821845 0.31681788 0.34201226
0.31381926 -0.20690623 0.08075634 0.07891063 0.3118938 0.31427634 0.34542608 0.015530271
0.11162908 -0.45660526 -0.11897513 0.51117843 -0.37329605 0.40429977 0.2765777 0.41661683
0.25133473 0.3685203 -0.37886137 -0.47722176 0.46540278 -0.4593117 -0.39101022 0.47694927
-0.12179351 -0.52774024 -0.40997955 0.25582036 -0.4415957 -0.061352395 0.08451432 0.4558807
0.49465823 0.24988277 0.47306973 0.054677136 0.31191295 0.4574126 0.4128093 0.26457068
0.32679456 -0.2260407 0.1475248 0.43323988 0.37967023 0.18695863 0.36823845 -0.46364424
0.293675 0.4475172 -0.29765356 -0.3078051 0.39011866 -0.29952577 -0.4635446 0.40239215
0.5108197 0.39928645 0.28840598 0.16523923 0.44023603 0.2977082 0.43248394 0.22933044
0.44277588 0.32593155 -0.3450884 -0.32416674 -0.27663118 0.1744032 -0.4451623 0.21173242
-0.36369526 -0.3277045 -0.4300721 -0.35832852 0.38468158 -0.4491417 -0.38605306 0.46350443
0.38724488 -0.47900003 0.3331623 0.34430295 -0.472459 0.42135495 0.108576566 0.0728508
0.27168143 0.29924363 0.18803962 0.28327304 0.061871763 -0.42197606 -0.25950798 -0.38314703
-0.32377738 -0.31024602 0.044556912 0.2883613 0.20379874 -0.35930043 0.1953152 0.30838874
-0.21858409 0.4835308 0.45917568 -0.2751022 0.4294131 -0.25804418 -0.36448914 0.23898637
-0.3959401 0.3274016 0.4722959 0.37699127 -0.0900024 0.29124412 0.2559897 0.2825144
0.23716483 0.28098446 0.3983265 0.060681414 0.22587937 -0.32559773 0.43072662 0.3526203
0.46762022 -0.4775999 -0.41132313 0.23744738 -0.50082093 0.033156592 -0.48030332 -0.48275813
0.33186644 0.5150951 0.07547037 -0.2091043 0.39022675 0.3650097 -0.06716374 0.36817673
-0.5114108 0.39749122 0.48700002 0.32079703 0.45692497 -0.528399 0.49368444 0.35167146
0.2983083 0.41906452 0.34996974 0.32475045 0.4588922 0.10430141 0.5028871 0.25277996
0.5123484 -0.27268782 -0.35621116 0.34667444 -0.3191401 0.4997582 -0.5099489 0.408938
-0.43345428 -0.51675934 -0.40977448 0.48558918 0.20585081 0.28556556 -0.5357575 0.17711768
-0.09487969 0.0091743255 0.256034 -0.28590125 0.14529055 -0.28995153 0.03447767 0.5128587
-0.2741938 -0.37855968 0.055345085 0.44946545 -0.3694426 0.0100455 0.38392806 0.37187812
-0.3427469 0.14896923 0.22590758 0.3667205 0.22972026 0.2475731 0.28603292 -0.3429068
0.3945388 -0.43430153 -0.28219607 -0.18641499 0.11396209 -0.022502888 0.09142473 0.47874218
0.42341533 0.4526387 -0.47293454 -0.4003057 0.33470547 -0.27529496 0.38305715 0.11921851
00000000: 5cce d43e 6330 993e 66d4 463e 7dd3 bf3e
00000010: cfb4 91be da57 c8be 76f1 b23e 9ba6 773e
00000020: 4d50 f7bd 2744 01bd d7ec a7be bd0e f53e
00000030: dc10 5b3e 5860 e43e 1b84 bc3e 9e6e 0dbe
00000040: 5401 69bc 466e f23e a231 f2be f64f 85be
00000050: f77e f9be ffa0 6e3e 6031 cd3c 3d00 86be
00000060: 405d 873e 8147 cc3e 9682 77b8 2c5e d13d
00000070: 3522 fdbe 19fe f83e 2a1b 82be 5930 cc3e
00000080: 75e2 993e a68e a33e f453 8abe 5ae0 08be
00000090: 9cb5 aabe c7f9 4a3e f435 a23e 3b1c af3e
000000a0: ebac a03e 3adf 53be 9463 a53d e59b a13d
000000b0: 8bb0 9f3e d4e8 a03e b0db b03e ae72 7e3c
000000c0: c99d e43d 2ac8 e9be 3ca9 f3bd 97dc 023f
000000d0: a920 bfbe 6100 cf3e 989b 8d3e cd4e d53e
000000e0: f2ae 803e b1ae bc3e 1efa c1be 6956 f4be
000000f0: 4649 ee3e e72a ebbe 7e32 c8be b232 f43e
00000100: e06e f9bd fc19 07bf d7e8 d1be e3fa 823e
00000110: d518 e2be a64c 7bbd d815 ad3d 3269 e93e
00000120: d843 fd3e 45e1 7f3e 3236 f23e 22f5 5f3d
00000130: 0eb3 9f3e fc31 ea3e be5b d33e cf75 873e
00000140: 9e51 a73e 3777 67be be10 173e 9ed1 dd3e
00000150: 2364 c23e 1572 3f3e c089 bc3e c762 edbe
00000160: 925c 963e f920 e53e 0c66 98be a198 9dbe
00000170: a2bd c73e 715b 99be b855 edbe 5806 ce3e
00000180: 14c5 023f 466f cc3e f3a9 933e 7934 293e
00000190: 9e66 e13e 366d 983e 896e dd3e 99d5 6a3e
000001a0: 85b3 e23e 80e0 a63e 6daf b0be 2ff9 a5be
000001b0: 9aa2 8dbe c196 323e 50ec e3be 62d0 583e
000001c0: 4436 babe e2c8 a7be 6932 dcbe d676 b7be
000001d0: fcf4 c43e e7f5 e5be bfa8 c5be 7450 ed3e
000001e0: f644 c63e 7e3f f5be 4094 aa3e 7a48 b03e
000001f0: 25e6 f1be d6bb d73e 645d de3d cd32 953d
00000200: d419 8b3e 7636 993e 758d 403e 2a09 913e
00000210: 3f6d 7d3d 3f0d d8be 3bde 84be d92b c4be
00000220: 26c6 a5be 91d8 9ebe 4f81 363d 18a4 933e
00000230: 9eb0 503e 3af6 b7be b500 483e 21e5 9d3e
00000240: 82d4 5fbe 5991 f73e 1319 eb3e 32da 8cbe
00000250: 09dc db3e 5e1e 84be 529e babe d8b8 743e
00000260: a9b8 cabe 2fa1 a73e c5d0 f13e 0005 c13e
00000270: 2e53 b8bd f31d 953e 1511 833e baa5 903e
00000280: 56db 723e 32dd 8f3e 73f1 cb3e 138d 783d
00000290: ec4c 673e bfb4 a6be 3388 dc3e a68a b43e
000002a0: eb6b ef3e f987 f4be f298 d2be 6825 733e
000002b0: cd35 00bf 35cf 073d 51ea f5be 132c f7be
000002c0: 66ea a93e 46dd 033f 3690 9a3d 701f 56be
000002d0: cdcb c73e 8de2 ba3e 258d 89bd a981 bc3e
000002e0: d1eb 02bf f883 cb3e 1158 f93e 823f a43e
000002f0: 12f2 e93e 2845 07bf 35c4 fc3e 480e b43e
00000300: debb 983e a08f d63e 3c2f b33e b145 a63e
00000310: ebf3 ea3e fa9b d53d 36bd 003f 606c 813e
00000320: 4429 033f bd9d 8bbe 4f61 b6be 507f b13e
00000330: 5566 a3be 4fe0 ff3e 038c 02bf 5260 d13e
00000340: b8ed ddbe 574a 04bf f6cd d1be 259f f83e
00000350: 8eca 523e a635 923e 6727 09bf 565e 353e
00000360: 4850 c2bd e94f 163c e316 833e a661 92be
00000370: 0cc7 143e 8774 94be 7538 0d3d b54a 033f
00000380: 2163 8cbe 93d2 c1be 87b1 623d 5620 e63e
00000390: 9527 bdbe e195 243c 3892 c43e cf66 be3e
000003a0: 867c afbe 648b 183e 5154 673e cac2 bb3e
000003b0: ca3b 6b3e cd83 7d3e e872 923e 7b91 afbe
000003c0: fd00 ca3e c55c debe 017c 90be 92e3 3ebe
000003d0: f564 e93d fa57 b8bc e43c bb3d b21d f53e
000003e0: e5c9 d83e 42c0 e73e 7a24 f2be def4 ccbe
000003f0: 845e ab3e 76f3 8cbe 1120 c43e d628 f43d

l2.bias f4 [32]
0.14893913 -0.0018455079 0.20646566 0.36378118 -0.09270418 0.19321264 0.30591595 -0.13033181
0.17593572 0.21235503 0.29157752 -0.024189325 0.25768322 0.40037033 -0.081406 0.26021913
-0.181556 0.21811892 0.15861145 0.34294307 -0.093240514 0.3127729 0.23052591 -0.0021303175
-0.05020912 0.11913448 0.23313552 0.2763168 -0.07070242 0.39196151 0.22116682 0.08285182
00000000: 8083 183e f8e4 f1ba bc6b 533e 8741 ba3e
00000010: b0db bdbd 89d9 453e 04a1 9c3e b475 05be
00000020: 7e28 343e 9973 593e a649 953e b128 c6bc
00000030: 0eef 833e 57fd cc3e 30b8 a6bd 713b 853e
00000040: d1e9 39be 915a 5f3e 0a6b 223e 3c96 af3e
00000050: e2f4 bebd c523 a03e fc0e 6c3e cc9c 0bbb
00000060: 14a8 4dbd c7fc f33d 14bb 6e3e 6579 8d3e
00000070: 6ecc 90bd 2eaf c83e 8e79 623e 37ae a93d

l3.weight f4 [43, 32]
-0.32052505 -0.30068025 -0.33991143 0.25008836 -0.12707995 0.5294901 0.21392275 -0.36212063
0.28988144 -0.06954678 0.45314595 -0.41449377 0.38518003 0.37088972 -0.036754597 -0.17159027
-0.1671578 -0.3205759 0.3214542 0.1606948 -0.39468753 0.38342294 0.325295 -0.3747514
-0.41197115 -0.2777367 -0.3914783 0.39652443 -0.39821517 -0.35869628 -0.40091836 -0.354197
0.18772352 0.32986432 -0.14572065 0.1739026 -0.1933307 0.30107096 0.3614703 0.26148003
0.27129194 -0.01132768 -0.26627278 -0.25219887 0.3999837 0.23868094 -0.122027196 0.39315587
-0.42859927 -0.40102798 -0.3169135 -0.41638732 -0.22223186 0.39314038 -0.22360882 -0.07682774
0.04225205 -0.37450284 -0.43455723 0.272699 -0.52074075 0.18441974 -0.45771828 0.2801833
0.29341602 -0.039147697 0.1289166 -0.42132097 0.22679037 0.47111073 0.46553737 -0.5045068
-0.3731468 0.00977945 -0.11209642 -0.17236467 0.3663096 0.40034384 -0.037255317 -0.39410985
-0.13018824 0.36303383 -0.22245501 0.28487962 -0.28533772 -0.4059997 0.35611254 -0.36424518
-0.42179546 0.27235314 -0.1329104 0.38728607 -0.17301784 -0.23233998 -0.48709914 0.22752257
-0.25673664 -0.2542392 -0.3074504 0.051864296 0.24644217 0.37477505 -0.41432208 -0.1572131
-0.11130932 -0.49115458 0.3043931 0.44300985 -0.09093822 -0.2361584 -0.1506352 -0.32581672
0.457163 -0.43340698 0.39352617 0.27655232 -0.10508203 0.42246473 0.44984496 0.32811847
-0.1416627 -0.23482685 -0.294123 0.1626252 0.03354779 0.05355249 -0.18466504 -0.15752223
-0.06335856 -0.1615796 0.29415613 -0.32783338 0.11619251 -0.08743848 -0.34911194 0.34112352
0.4173235 -0.34482798 0.29786095 0.3519846 -0.19980195 -0.41792783 0.02492907 -0.06398627
0.4070894 -0.28102076 0.06609938 0.35405338 0.12116096 0.24513145 -0.36922523 0.4163764
-0.470207 -0.53258216 -0.37634647 -0.4623926 0.03812411 0.19455668 0.16046588 -0.32010603
0.08117207 -0.38120115 0.26030323 -0.3306413 0.33712026 -0.3838645 -0.37409115 -0.12721704
-0.43187666 -0.5045731 0.22857817 0.15434043 -0.3171238 -0.18078049 0.10762621 -0.40997007
0.10731259 0.07035024 0.43793255 0.37020877 0.36954 -0.41616595 0.4027935 0.13540304
-0.241923 0.27545983 -0.5203252 -0.41831943 0.11413 0.2668201 0.14940763 -0.36674967
-0.024843799 -0.079534024 0.1450834 -0.18966109 -0.2137351 -0.18910702 -0.45261526 0.29677168
-0.29682449 -0.53862876 0.44722736 0.40918958 -0.21938592 -0.43375206 0.015654853 -0.41981128
0.42263874 -0.3475694 0.016821517 -0.52409154 0.40433487 -0.37823457 -0.41244972 0.23851684
-0.42533976 0.24227893 0.06640061 -0.4073659 0.41319373 0.21264604 0.27085695 -0.40893537
-0.5950168 -0.13557951 -0.38632733 0.41709313 -0.3259644 0.087533616 0.5030105 -0.32583973
-0.258161 0.10121131 0.07589185 -0.23892616 0.48227927 0.12880573 -0.01684036 -0.20539401
-0.4730224 -0.22108728 0.51606214 -0.31670833 -0.47411007 -0.28514498 -0.17680119 -0.43036
0.3738591 0.2959884 -0.11428594 0.49758396 0.35250655 -0.48157176 0.12148424 0.20337327
00000000: dc1b a4be c3f2 99be df08 aebe 950b 803e
00000010: 3f21 02be aa8c 073f 910e 5b3e e067 b9be
00000020: 576b 943e 8b6e 8ebd bf02 e83e 8738 d4be
00000030: 5136 c53e 42e5 bd3e fd8b 16bd 5cb5 2fbe
00000040: 6a2b 2bbe 8622 a4be a595 a43e 2d8d 243e
00000050: 7c14 cabe 0350 c43e 118d a63e 6adf bfbe
00000060: e2ed d2be 8133 8ebe d86f c8be 4005 cb3e
00000070: dce2 cbbe 0aa7 b7be 2c45 cdbe 4f59 b5be
00000080: 983a 403e fae3 a83e cb37 15be 8613 323e
00000090: 7cf8 45be f925 9a3e a312 b93e b6e0 853e
000000a0: c7e6 8a3e bc97 39bc e854 88be 3620 81be
000000b0: aaca cc3e c768 743e 65e9 f9bd ba4b c93e
000000c0: 5d71 dbbe 8a53 cdbe 7c42 a2be b830 d5be
000000d0: c090 63be b249 c93e b6f9 64be dd57 9dbd
000000e0: 7c10 2d3d d6be bfbe 497e debe 349f 8b3e
000000f0: 444f 05bf 87d8 3c3e 0d5a eabe 2f74 8f3e
00000100: a03a 963e 5659 20bd b702 043e 62b7 d7be
00000110: bc3b 683e 6d35 f13e ea5a ee3e 5c27 01bf
00000120: 190d bfbe fc39 203c cf92 e5bd 5d80 30be
00000130: ef8c bb3e def9 cc3e 0899 18bd c4c8 c9be
00000140: 1150 05be 92df b93e 3fcb 63be bedb 913e
00000150: c917 92be 31df cfbe 6254 b63e 587e babe
00000160: 93f5 d7be df71 8b3e aa19 08be 5c4a c63e
00000170: 972b 31be 88ea 6dbe 0f65 f9be adfb 683e
00000180: fc72 83be a42b 82be 246a 9dbe a86f 543d
00000190: 565b 7c3e 84e2 bf3e 0622 d4be 79fc 20be
000001a0: 24f6 e3bd 9d78 fbbe 6ad9 9b3e 30d2 e23e
000001b0: d13d babd 82d3 71be 1d40 1abe 73d1 a6be
000001c0: 4511 ea3e 85e7 ddbe 437c c93e 4498 8d3e
000001d0: 3f35 d7bd 4c4d d83e 1452 e63e 25ff a73e
000001e0: 0710 11be 7376 70be 4a97 96be 3887 263e
000001f0: 6869 093d db59 5b3d d518 3dbe 824d 21be
00000200: 22c2 81bd 1f75 25be a29b 963e c7d9 a7be
00000210: 57f6 ed3d f212 b3bd cdbe b2be bea7 ae3e
00000220: 6dab d53e 4b8d b0be 3b81 983e 5337 b43e
00000230: e298 4cbe a3fa d5be 0d38 cc3c 3c0b 83bd
00000240: 066e d03e f4e1 8fbe 1d5f 873d 7c46 b53e
00000250: 3d23 f83d bd03 7b3e 170b bdbe 4a2f d53e
00000260: f9be f0be 4e57 08bf 7cb0 c0be b9be ecbe
00000270: 0728 1c3d de39 473e 2b51 243e f0e4 a3be
00000280: 8b3d a63d cc2c c3be 7746 853e d149 a9be
00000290: 079b ac3e e389 c4be e088 bfbe 2f45 02be
000002a0: f01e ddbe b42b 01bf 6510 6a3e 6b0b 1e3e
000002b0: 0d5e a2be 851e 39be 216b dc3d 99e7 d1be
000002c0: b4c6 db3d c913 903d b238 e03e 018c bd3e
000002d0: 5934 bd3e b413 d5be f33a ce3e 18a7 0a3e
000002e0: aaba 77be 1209 8d3e 0834 05bf f72d d6be
000002f0: fdbc e93d a59c 883e 50fe 183e 9dc6 bbbe
00000300: 3985 cbbc bce2 a2bd be90 143e 8436 42be
00000310: 60dd 5abe 45a5 41be 30bd e7be 75f2 973e
00000320: 61f9 97be 93e3 09bf fcfa e43e 4c81 d13e
00000330: b4a6 60be c014 debe 9b3e 803c 81f1 d6be
00000340: 1b64 d83e 9ef4 b1be 47cd 893c dd2a 06bf
00000350: fb04 cf3e f6a7 c1be 9c2c d3be c23d 743e
00000360: 22c6 d9be f817 783e 0bfd 873d 4392 d0be
00000370: 218e d33e e2bf 593e c3ad 8a3e fa5f d1be
00000380: 0553 18bf 5bd5 0abe b2cc c5be 3b8d d53e
00000390: cee4 a6be d344 b33d 4cc5 003f 77d4 a6be
000003a0: ae2d 84be e047 cf3d 306d 9b3d 0fa9 74be
000003b0: 4fed f63e a6e5 033e cbf4 89bc cf52 52be
000003c0: fe2f f2be b464 62be a61c 043f 9827 a2be
000003d0: 8ebe f2be 86fe 91be 5f0b 35be 2558 dcbe
000003e0: 766a bf3e cb8b 973e bf0e eabd 53c3 fe3e
000003f0: bd7b b43e 9390 f6be bbcc f83d 1541 503e

l3.bias f4 [43]
-0.21432686 -0.12561509 -0.13328953 -0.22853132 0.14684604 0.12602735 -0.3450741 0.07672263
0.38359275 -0.37053746 -0.12791035 0.034605585 -0.15356125 0.005105064 -0.017361775 -0.028551623
0.11172982 0.07999208 0.24385992 0.1683753 -0.05274174 -0.00036519344 0.0031036134 0.09725772
0.13434267 0.12261835 -0.19298416 -0.07724226 -0.044410132 -0.08895752 -0.17539538 0.18199119
-0.009038103 -0.15802991 0.39686418 -0.06538219 0.22299361 0.011695815 -0.050380185 0.21339436
0.15216509 -0.02349933 0.19330613
00000000: 8078 5bbe 3ea1 00be 0d7d 08be 1d04 6abe
00000010: cf5e 163e 500d 013e 8dad b0be c120 9d3d
00000020: 4566 c43e 16b7 bdbe eefa 02be 96be 0d3d
00000030: 293f 1dbe 6148 a73b 483a 8ebc 18e5 e9bc
00000040: 9bd2 e43d e3d2 a33d 6ab6 793e 936a 2c3e
00000050: b907 58bd 6f77 bfb9 fe65 4b3b 0e2f c73d
00000060: 2091 093e 541f fb3d a49d 45be 3131 9ebd
00000070: 66e7 35bd 5c2f b6bd d99a 33be e65b 3a3e
00000080: 8d14 14bc 98d2 21be c831 cb3e 19e7 85bd
00000090: 7058 643e ce9f 3f3c 745b 4ebd 0d84 5a3e
000000a0: 2ad1 1b3e ab81 c0bc 0bf2 453e
