data.pth (torch, 69482 bytes, 6 tensors)

l1.weight f4 [32, 404]
00000000: 5988 38bd c6de 64be 56ff 3f3d 6375 af3e
00000010: a761 453d 3cce 683e 90a2 8c3e ac17 8b3e
00000020: aac3 aa3e ecf6 443e d157 443e d7b1 f4bd
00000030: 15ab 84bd 5187 463e f30c a23e 0412 36be
00000040: 11e9 14be 4b32 0dbd 95e5 e7bd af32 3d3e
00000050: 0a99 863d 7e69 f6bd 1eb6 9cbe 108e 293e
00000060: 0142 893e 7535 f13d 47f9 883e 100f 85be
00000070: e929 2bbe b402 653e 6073 3bbe 695b 03be
00000080: 08f1 9a3e 34b1 99be dca8 663e 7d74 43be
00000090: 89c2 183d 882f ccbc 41df 913d c6dd b53c
000000a0: 8d42 9a3e 7aa1 9e3e 29c2 5b3e 52e5 fb3b
000000b0: 65cd 623e e46c d7bd 0639 a9bc 6c4a 683e
000000c0: 9609 a4bd 35df 40be 936b 4ebe f24b bdbd
000000d0: c86b 8bbe f9e1 e3bd 2d47 803e 5d94 81be
000000e0: a2c3 babe 3a69 89bd 336d b7bd 37b3 f2bc
000000f0: 6c35 443e 8574 7a3e 3dc2 48be 88cd a73d
00000100: c20e 713e 92b2 b83e 0576 423e 7770 8abe
00000110: 664d dcbd 6a70 1e3d b0e4 9fbe 56ef 113e
00000120: 9016 b73e bed1 5f3e 1109 023d 6ba8 92be
00000130: bd64 803e 35a9 f9bc d2ec 3c3e 0962 8b3e
00000140: 8c2c 6cbe ec92 4f3e ef37 ab3e bd52 87be
00000150: ea2e 58be 4060 f8bd b0ca 14be 1b09 a13e
00000160: 1cca 833e 8590 bfbd ce5b 4abe 4185 a43e
00000170: d8da e53d 1084 7cbb 72ec ba3c 3009 893e
00000180: ec78 283e af1f 583e b442 0d3e c57e acbc
00000190: 4b67 a83e bd93 24bd ad23 bebb fed6 753e
000001a0: 54b6 a1bd bb36 d2bd ba4d 943e 5456 9a3e
000001b0: 5fa0 813e 194b 5ebe 0aa4 923e fc6b 2a3e
000001c0: bcd6 b13e 2f60 823e 99e1 4d3e b62e 3abd
000001d0: 1bd6 053e 31ee 5f3e d36d 283e 7297 093e
000001e0: cbbe c63c 45b9 9a3e ded8 633e 68fb a63e
000001f0: eea6 763e adf3 9f3e 0413 8bbe 2da0 8a3e
00000200: 7e0e 47be eca9 603e 8bad 873d e8b9 8d3d
00000210: 3b4b 813e 309c 69be e087 acba bff4 9d3e
00000220: b291 b43e 0896 80bb 80eb 713e f4b8 6f3e
00000230: 4263 94bc 6af4 4e3e 9c40 f63e 2280 813e
00000240: 31db 613e 6f17 8c3e 266c 5bbe 472e b8bd
00000250: 285b a73e f896 873e ea86 54be 28a7 87be
00000260: cf8e aa3d d4d0 583e e4ae ef3c 9754 ba3e
00000270: 6c80 5abe 15ae a03e 981f af3e b9a6 d0bd
00000280: d49a 98be 6187 d63e 7191 603e ba52 693e
00000290: 1bed 693e 18dc a53e 83b3 49bd 96d8 cbbd
000002a0: 01a1 7c3e 1ba7 f43d f91a c43c 1d66 823e
000002b0: 9197 2a3d 1f3c cebe 97dd 423e 4a23 7cbd
000002c0: 8b5e a63e 7e42 6b3e 4cec f0bd 8179 783e
000002d0: 029e 53be 92e2 31bd ac6f 9bbe cf99 fabb
000002e0: 54ce 203c ae51 233e c40b adbd 8e0d 01be
000002f0: b7d8 913e 005a bfbd 8e68 583e 59df 8c3e
00000300: fc37 a23e 4460 783c 90eb 873e 8d2b 42be
00000310: dd28 a93e 088a 113e 7e70 793e 6ab8 b1be
00000320: 4415 db3d c9a1 4bbd 3dc2 8bbd de57 993e
00000330: 847c 793e 57e2 223d f83a a63e e2f9 b63d
00000340: 3b79 8c3e 32ca 493e 4e68 853e da44 e5bd
00000350: 943b 673e 6a36 06be 8488 09be 20d0 fbba
00000360: 8b46 6a3e 8fba 763e 0d3b af3e 5f34 903e
00000370: b803 1ebe 971c 47be fe29 a4bd 71d6 f23d
00000380: 4d5a a43e 0ca6 2bbd 8286 1f3d 6d73 6bbe
00000390: 2a6e c3bd 5708 93be a4ad 18be e61a cd3c
000003a0: bea5 903e a151 b1bd a285 103e e122 643e
000003b0: 932c 43be 05f5 63bd c82f 113e 7434 76bc
000003c0: 3ce2 533e 6e62 913e eda1 80be 48df 9fbe
000003d0: f443 633c 937a 013e 10a2 923e 16b2 3a3e
000003e0: 2729 16be b7de 573e 9b18 a3be 7058 6bbd
000003f0: 1786 88bd 866a 2cbe a109 6b3e 3194 3e3c
-0.045051906 -0.22350606 0.046874367 0.34269246 0.04818883 0.22734922 0.27467775 0.27166498
0.33352405 0.19234818 0.19174124 -0.11947983 -0.06477944 0.19387557 0.31650504 -0.1778031
-0.14542033 -0.03447179 -0.11323086 0.18476366 0.06572159 -0.1203184 -0.30607694 0.16558099
0.2680817 0.11777774 0.26752684 -0.25988054 -0.16715206 0.22364312 -0.18305731 -0.12827839
0.30262017 -0.30018008 0.22525352 -0.19087406 0.0372949 -0.024925008 0.071226604 0.022200476
0.301289 0.30982572 0.21460785 0.007687249 0.22148664 -0.10518816 -0.020657074 0.2268464
-0.08009641 -0.18835147 -0.20158224 -0.09243001 -0.27230668 -0.11127085 0.25054303 -0.25308505
-0.3647738 -0.067095235 -0.08956375 -0.029626472 0.19161004 0.24458511 -0.19605346 0.08193499
0.23540786 0.36073738 0.18990333 -0.2703893 -0.1075695 0.038681425 -0.31229162 0.14251456
0.357594 0.21857354 0.031746928 -0.28644118 0.25076857 -0.030476192 0.18449715 0.27223232
-0.23063868 0.2027089 0.3344111 -0.26430312 -0.21111646 -0.12127733 -0.14530444 0.3145226
0.25740135 -0.09353737 -0.19761583 0.32132915 0.11223382 -0.0038530864 0.022817824 0.26764822
0.16452378 0.21105836 0.13794976 -0.021056542 0.32891306 -0.040179957 -0.0058025927 0.24007794
-0.078961045 -0.10264345 0.2896555 0.30143988 0.25317666 -0.21708335 0.28640777 0.16642755
0.34734142 0.25464007 0.2010559 -0.045454703 0.13069956 0.21868207 0.16448145 0.13436678
0.024260899 0.30219474 0.22250697 0.32613683 0.24087116 0.31240597 -0.27162945 0.2707533
-0.19439122 0.2193982 0.066248976 0.069202244 0.2525271 -0.22813487 -0.0013163052 0.3085079
0.35267407 -0.003924135 0.23624992 0.23410398 -0.018113736 0.20210424 0.48096168 0.2529307
0.22056271 0.27361628 -0.21427974 -0.08993202 0.32686734 0.26482368 -0.2075459 -0.26494718
0.0832802 0.21173412 0.029258199 0.36392662 -0.21338052 0.31382814 0.34203792 -0.1018805
-0.29805624 0.4190016 0.21930481 0.22785464 0.22844355 0.3239448 -0.04924346 -0.0995342
0.24670793 0.11945935 0.023938643 0.2546853 0.04164845 -0.40280244 0.19029842 -0.06155709
0.32494006 0.22974584 -0.1176382 0.242651 -0.20665744 -0.043428965 -0.30358636 -0.00764773
0.009814817 0.15949127 -0.0844951 -0.12602827 0.28485653 -0.09343338 0.21133634 0.2751415
0.31683338 0.01515967 0.26546907 -0.18961926 0.3303899 0.14212811 0.24359319 -0.3471101
0.106974155 -0.049714837 -0.068241574 0.2994985 0.24363905 0.039766636 0.32466865 0.0893438
0.27436242 0.19706038 0.2605614 -0.11194773 0.22581321 -0.13106695 -0.13430983 -0.0019211806
0.22878473 0.24094604 0.3422474 0.28164956 -0.15431106 -0.194445 -0.08015822 0.11857308
0.32100144 -0.0419064 0.038946636 -0.2299325 -0.095424965 -0.287173 -0.14909989 0.02503724
0.2825145 -0.086581476 0.14113477 0.2227893 -0.19059972 -0.05565359 0.14178383 -0.015027154
0.2069177 0.28395408 -0.2512354 -0.31225038 0.013871182 0.12644415 0.2863927 0.18231997
-0.14664136 0.21081053 -0.3185471 -0.057457387 -0.066662006 -0.1683751 0.22952892 0.011632011

l1.bias f4 [32]
00000000: 8749 9b3e 3b95 893e 59f2 9d3e 9c6b 963e
00000010: a2ad 9e3e 3588 8c3e 1115 b83e 57c3 b73e
00000020: 2ad5 943e 1085 953e 7593 9c3e e85c 923e
00000030: 380a be3e 3d76 7d3e 55e1 ad3e 99fc 983e
00000040: f820 b63e 3ef1 8b3e 73ce 843e d1fd 9c3e
00000050: 1a72 913e 395e 903e 1262 833e 208b b03e
00000060: d71f 783e c1a5 a63e 2b5c 793e f36f 9b3e
00000070: 315f 923e 6389 8c3e 46e1 833e fb8c 8a3e
0.30329534 0.26871666 0.3084896 0.29378974 0.30991846 0.27447668 0.35953572 0.3589122
0.2906888 0.2920308 0.3058125 0.28586507 0.3711717 0.24752136 0.33960977 0.29880217
0.35572028 0.2733249 0.25938758 0.30662397 0.28407365 0.28196886 0.2566076 0.34481144
0.24230896 0.32548335 0.24351566 0.30358848 0.2858825 0.27448568 0.25757807 0.27060685

l2.weight f4 [32, 32]
00000000: 7023 a3be a1de 9ebe 6426 c3be 8d64 8abb
00000010: 3ac1 493e 3898 a7be 20c8 1d3c 2856 da3e
00000020: 8120 0c3e aba3 823e 4072 433e 5728 d73e
00000030: 4696 983e 56c5 cd3e b36c d43e 899e 59be
00000040: d199 3f3e 6daa 83be a383 e0be 06aa d33e
00000050: 4d45 b6be e4a6 f63e 7afb e93d 3f6f d0be
00000060: 01cb bf3e b2b0 ba3e 4a1b 8d3e ec14 b03e
00000070: b2b6 9cbe a2ae b93e 45fb bbbd 9de8 543e
00000080: bb19 d43d a03e e1bd 1e8e 22be 3ca0 3fbd
00000090: 36da 9fbd f5d9 8bbc 4799 13be 774b 133e
000000a0: b617 edbd 5e57 15be 0082 f7b9 5b38 3b3d
000000b0: 07d3 2bbe 986c 913d af30 263e c576 ac3d
000000c0: fde0 b0bd 4e7f 80bd 70de 5e3c a491 16be
000000d0: f78b f0bd 404a 12bd d97f 133e f4e6 0dbe
000000e0: e780 e03d 26f5 1a3e 2d2b e6bd eb26 0d3e
000000f0: 85b3 2abd 687e bebc 6ea9 e7bd 6f65 babd
00000100: e1fd ee3e e210 debe 9cb0 dbbe 40e4 9fbe
00000110: d44b b93e dd1b e83e b658 c73e 5e92 e2be
00000120: f0b0 41be 6142 dcbe da13 8d3e 3101 843e
00000130: 9ad9 063e 9d62 e23e b104 d0bd ee69 d63e
00000140: 5b0c e5be 32c5 e53e e7f4 663e 4083 ce3e
00000150: 8c10 e83e b0a0 f8be b0b4 a53e aaea c73d
00000160: 9dd2 02bf 2ddd 023e 47b2 cf3e de65 9e3e
00000170: bad2 9f3d f78b 903e 535b 8f3e 6eb8 a43e
00000180: 9992 623e 6b76 373e 05e1 463e ecc0 e43e
00000190: 1f1f bbbe 15d9 29be af0f acbe b05a ad3e
000001a0: 9af1 cc3e 30ee 903e 16e3 d2be 44bf 2e3e
000001b0: aee0 72be b0a8 b5be 1dda f9be 98cc dd3e
000001c0: 91a4 873e 976a 8b3e b9d3 8abe 3243 ec3e
000001d0: fe5a c53e 7f59 933e 93eb 7d3e 6507 d43e
000001e0: e3dc e23e 79cb 943e 6031 98be cb05 4e3e
000001f0: e687 be3e e9f3 f7be 791b 9dbe 03f3 283e
00000200: 0737 cb3e 611c 893e 5ba3 ad3e 8bee 113e
00000210: ddd3 e7be b9eb 843e f8a1 dcbe bea0 c5be
00000220: 87ec 503e da09 78bd 156c 8bbe e318 efbe
00000230: c1d1 c13e 42c9 db3e 6921 553e 0934 773e
00000240: 6f86 de3e 8adf 05bf ebb3 f13e 3c10 203e
00000250: 13fa 0b3e b767 e5bd 7a73 84be cc80 833e
00000260: e0ed 973e 4884 a1be 679d 843e 4f9f b4be
00000270: 5582 3a3e ab0a 363e 3233 c83e bd68 06bf
00000280: 545b 863e fb1f 633e 947c e13e d2d8 8d3e
00000290: 4968 d7be de23 c23e 2aa8 28be 340d eb3e
000002a0: e783 c93e e609 e33e 269e f9be 1b3c c13e
000002b0: 96d2 c6be c6fc f5be 17f0 be3e 3cd1 ce3e
000002c0: 7260 da3e 36b3 933e 68b2 253e d4dc c5be
000002d0: a553 b4be 8fd3 d43e de71 eb3e dffb 713e
000002e0: 5adf 5d3e 0db6 aa3e 023e d2be c120 d13e
000002f0: b748 8f3e fd36 b7be 0ffb b4be 6094 bebe
00000300: b85f a2bc 6455 0c3c 0f90 3fbd 76e8 bd3d
00000310: 303c 913d 3f19 06be 62d5 283d 3496 11be
00000320: 102b 543c 4361 583c 9ab5 30be 8b40 89bd
00000330: c194 c33d 5b37 22bd 8d7f 17be 0296 f2bd
00000340: 9b4f f23c 06b1 15be 91a0 cc3d 2cd5 cbbc
00000350: 9017 93bc 826c 99bc 32a9 bebd 6e5b e0bd
00000360: b212 6cbd 11de e4bd ea40 123e 7b4c 133e
00000370: 54df 2bbe 246d 8ebd b446 ec3d ddd5 c2bd
00000380: 9217 823e 8014 9d3e 6bc9 983e a00a 69be
00000390: 9422 aebe 0d00 113e d11b 61be 5c2b d5bd
000003a0: b93e a43e 29a6 c1be 4ec5 c3be 3f61 ee3e
000003b0: 47b7 c23e d13a e23e 8981 a73e 17ac b23e
000003c0: 735d db3e b2fb cc3e ddc7 023e 568c da3e
000003d0: 034f 9c3e 9d6d 863e 1ec4 82be 281c a73e
000003e0: ab03 93be d764 243e 6225 70be ced9 933e
000003f0: 3c1a aa3e 3b4a 9abe e8ec 363e 362d e7be
-0.31862974 -0.31029227 -0.38115227 -0.0042234124 0.19702616 -0.3273332 0.009630233 0.42643857
0.13684274 0.25515494 0.19086552 0.42022964 0.2980215 0.40189618 0.4148918 -0.21251883
0.1871102 -0.25715962 -0.4385043 0.41340655 -0.35599747 0.48174202 0.114249185 -0.40709874
0.37459567 0.36462933 0.27559882 0.34390962 -0.30608135 0.36266047 -0.09178785 0.2079186
0.1035647 -0.10998273 -0.15874526 -0.04678367 -0.07805292 -0.017071703 -0.1441394 0.14384256
-0.11576788 -0.14584109 -0.0004720837 0.04570804 -0.1677972 0.07100791 0.16229509 0.08421091
-0.08636663 -0.062742814 0.013602838 -0.14703995 -0.11745446 -0.03571534 0.14404239 -0.13857633
0.10962086 0.15132579 -0.11238704 0.13784377 -0.04167511 -0.023253635 -0.11311613 -0.09101378
0.4667807 -0.43372256 -0.4290818 -0.31228828 0.36190665 0.45333758 0.3893487 -0.44252294
-0.18915153 -0.43019393 0.27554208 0.2578216 0.13168946 0.4421586 -0.10157145 0.41877693
-0.4473599 0.4487701 0.2255436 0.4033451 0.45325124 -0.48560095 0.32364416 0.097615555
-0.5110262 0.12779684 0.40565702 0.30937093 0.07803865 0.28231785 0.27999362 0.3217196
0.22126235 0.17916267 0.19421776 0.44678438 -0.3654718 -0.16586716 -0.33605716 0.33858252
0.40028077 0.28306723 -0.41188878 0.1706515 -0.23718521 -0.3548026 -0.4879922 0.43320155
0.26492742 0.2722976 -0.27114657 0.46145016 0.38545984 0.28779218 0.24796896 0.41411892
0.44309148 0.29061487 -0.2972517 0.20119397 0.37213057 -0.48428276 -0.30685022 0.16498952
0.3969042 0.26779464 0.33913693 0.14251153 -0.45278826 0.25961092 -0.43092322 -0.385992
0.20402728 -0.06055627 -0.27230898 -0.46698675 0.37855342 0.42926985 0.20813526 0.24140944
0.4346194 -0.5229422 0.4720758 0.15631193 0.13669614 -0.11201423 -0.25869352 0.25684202
0.29673672 -0.31546235 0.25901338 -0.35277793 0.1821378 0.17777507 0.3910156 -0.5250357
0.26241553 0.22180168 0.44040358 0.27704483 -0.4207175 0.3791799 -0.164704 0.4590851
0.39358446 0.4434349 -0.4875347 0.3774117 -0.3883254 -0.48044413 0.3729255 0.40394008
0.42651707 0.28847665 0.16181338 -0.3864504 -0.35220066 0.41567656 0.4598531 0.23631237
0.21667233 0.3334202 -0.41062933 0.40845302 0.27985165 -0.3578414 -0.35347793 -0.37222576
-0.019821033 0.008565281 -0.046768244 0.09272854 0.07091558 -0.13095568 0.041219123 -0.14217454
0.01294972 0.013206783 -0.17256775 -0.06701764 0.09549857 -0.039603572 -0.1479475 -0.11845018
0.029578974 -0.1461831 0.09991563 -0.024881922 -0.017955571 -0.018728498 -0.09309615 -0.10954939
-0.057635017 -0.11175168 0.14282575 0.14384644 -0.16784412 -0.06954411 0.11536923 -0.095134474
0.25408608 0.30679703 0.2984117 -0.2275796 -0.34010756 0.14160176 -0.21983267 -0.10408661
0.32079104 -0.37822083 -0.3823647 0.46558568 0.38030455 0.44185498 0.32716015 0.3489692
0.42844734 0.40035778 0.12771554 0.42685193 0.3052903 0.26255503 -0.2554025 0.3263867
-0.28713736 0.16054092 -0.2345176 0.2887711 0.3322314 -0.30134758 0.1786381 -0.4515168

l2.bias f4 [32]
00000000: a072 f23d 75be e5bd 953e 0b3e dbbc 883e
00000010: 35cb 913e 14d9 843e 0b87 d9bd e07a a13d
00000020: f52c 3b3c 4754 5e3c 9a86 933e 29b6 4b3e
00000030: af89 053e 3946 d13d 5986 b33d a5e4 f13d
00000040: b68e b13e 251e 053e 455e 47bd c2fd 5c3e
00000050: d546 c63e eb69 363d fc75 723e 4077 703e
00000060: f769 813e 23db c6bd 8fe6 9a3e d7d2 9a3e
00000070: ba25 30be 93e7 833e d697 b33e 0ce8 093e
0.11838269 -0.112179674 0.13598092 0.26706585 0.28475347 0.25946867 -0.106214605 0.07884765
0.011424293 0.013569898 0.2881363 0.19893707 0.13040803 0.10218472 0.08765859 0.118111886
0.34679192 0.1299978 -0.048673887 0.21581176 0.38725916 0.044534605 0.2367782 0.2348299
0.25276157 -0.09709766 0.30254027 0.30238983 -0.17201892 0.25762615 0.3507678 0.13467425

l3.weight f4 [33, 32]
00000000: bab3 433e 1b3f a33d 41d1 9dbe f98b e03e
00000010: fc24 c6be dd64 883e 4cf7 063d 9de6 d6be
00000020: aaea 633e 51db 80be 2ea3 ad3d db00 d23e
00000030: 0958 9bbe f176 a93d ff57 4c3e 39d7 953e
00000040: 0694 d9be 00bd fabe b096 7fbe cfff 1dbf
00000050: ef53 a53e 1d0c a23e 0801 41be e83f 0abe
00000060: 7453 cd3e 165c e8be 8b40 993e cf74 52be
00000070: 8617 86bc 29b1 14bd 02a6 aabe 229d b13e
00000080: cef2 86be 15b4 2d3e 285e c3be 09ed 9e3e
00000090: 3c16 bd3e 9961 b33e bb6c c23d 481b cf3e
000000a0: 8e3f 453e 8b3d 96be 7344 49be 0811 b83e
000000b0: ad0c d5be 1405 6f3e b86b dfbe 0715 68be
000000c0: 3e2b c0be 5ff0 bfbe 0927 163e 09c2 b7be
000000d0: 88f2 f03e b65a 2bbe e6b3 5f3d 6323 f1be
000000e0: 9c17 bfbe a6f7 55be b9cc d53e 14d7 a03e
000000f0: 0311 13bd f0e1 bdbe d2dc 0dbe 8ba3 903e
00000100: 7e50 93be da68 213e a82d b2be fc1a b43e
00000110: 5d67 1c3e d49e 923e e064 47bd dda4 cc3d
00000120: b935 043e d8f5 de3e 92cd f3be a646 c53e
00000130: d044 d23e bfc9 f93d b19b 35bd 86cc f4bc
00000140: d8a4 eebe c3b8 aebe eab3 cdbe 8f89 9abe
00000150: 5591 403e 536e acbe 8093 c23e d617 e4be
00000160: 37d6 ea3d a745 f3be 6fc3 ccbe af8d dd3e
00000170: 7563 72bd e37e 0b3e f670 cabe 0117 943d
00000180: 54ab 8abe 692e 6c3c 7bb9 823e 2107 75be
00000190: 0279 89be b11a b0be 1690 e3bd b593 d5be
000001a0: 391e c1be 00e3 f5be 8d78 7d3e 0eef b5be
000001b0: 0a2a a03e 9235 4fbe 7fb3 8c3e ce45 863e
000001c0: 0b8d aa3e 3284 b6be d722 9ebe 73b1 0cbf
000001d0: 98bd 98be a1b4 003e ac90 443e f999 4f3e
000001e0: 139e 8a3e 12f1 4b3e 94c3 f63e 7d13 ca3e
000001f0: 5313 d5bc 580a b9be fa86 593e dc4e e3be
00000200: f58b a8be f99e a8bd 4cbb ad3d 4cfc 30be
00000210: d33f 993e df71 40be 46e4 79bd bea8 b9be
00000220: 583d cebe 8745 cbbe d88d 95be 3c93 02bd
00000230: 1921 18bd 96f2 df3e 1f58 bfbe acdf 46be
00000240: 758c 62be e588 d73e a07a ab3e 95d1 1abf
00000250: 1d21 e3be fbed bfbe 314b 6c3d 7459 b93e
00000260: 624c babe fb52 e33e 5963 33bd 0371 883e
00000270: d563 583d 467a aebd 4769 f43e 8480 93be
00000280: 5269 a4be 94f0 883d 4126 d83e 4a04 e8be
00000290: d0f4 f6be 888b 9dbe e10f be3d ed1d aabe
000002a0: 3f83 ffbe 75d8 9f3d db68 babe 9100 cebe
000002b0: 1f0f 223e 6d30 013e 3231 edbe 8947 453e
000002c0: 686b 013f f327 c63d 782d 5fbe fca2 0abf
000002d0: 29d5 87be 8b9c e2be bf20 5fbe 375e e23c
000002e0: 6ade 833e 9377 8d3e 7e1a febd b4a0 923e
000002f0: dd31 c93d 8496 b93e 1c00 ad3e 0d9e f1be
00000300: 1a12 fa3e 2a2f 0e3e 10a1 c8be 4887 b33e
00000310: 48f4 d9be 2238 a13e 0726 2dbe f824 00be
00000320: fffe 0fbf 79aa b5bc 9dd3 883e af9f 8abe
00000330: 9f86 e7be 6609 00bf 46e5 ea3d 84b4 8c3e
00000340: 3f17 9a3e 6c37 86be a520 0ebf 3a0d e03d
00000350: b915 e93e 4f8d f73c db0f ecbe b5ed abbe
00000360: 93b7 4b3e 419a dcbe 0827 963d bc50 dcbe
00000370: 225f febd a56b b83e 629c c8be 1ce3 d13e
00000380: 9451 2d3e b352 76bd 4a80 eabe 583d f63e
00000390: e8fc 8bbe 0c57 f23e 5bbf d0bd cb93 223e
000003a0: 40a8 033e 6373 f23d 3276 333e 1eb9 c4be
000003b0: e5b3 553e 6340 383e f205 94be e729 16be
000003c0: 1b75 003e 967e 1f3e 0c08 553e b596 1cbd
000003d0: 7bc0 ffbe aaee 69be ace1 f8be c7d9 acbe
000003e0: 13b2 b3be 9bec c7be d8fa fc3e c65d 88be
000003f0: dac4 36be 9855 dd3e 44fe 38be 3a22 4f3e
0.19111529 0.07971021 -0.3082371 0.4385679 -0.38700092 0.26639453 0.032950684 -0.4197282
0.22257486 -0.25167325 0.0847839 0.41016278 -0.30340603 0.082746394 0.19955443 0.29265764
-0.42495745 -0.4897232 -0.24959826 -0.6171846 0.322906 0.31649867 -0.1884805 -0.13500941
0.40102732 -0.45382756 0.29932055 -0.20552371 -0.016368639 -0.036301766 -0.3332978 0.34690195
-0.2635712 0.16963227 -0.38157773 0.31040218 0.36931026 0.350354 0.09493395 0.404505
0.19262525 -0.2934383 -0.19655018 0.35950494 -0.41611233 0.23341781 -0.4363687 -0.22664271
-0.3753299 -0.37488076 0.14663328 -0.35890225 0.47060037 -0.16733822 0.054614924 -0.4709731
-0.373227 -0.20895252 0.41757753 0.31414092 -0.035904896 -0.3708644 -0.13853768 0.28249773
-0.28772348 0.15762654 -0.34800458 0.35176837 0.15273805 0.286368 -0.048680186 0.09992383
0.12911119 0.4354694 -0.47617775 0.38530463 0.41068125 0.12196683 -0.044337932 -0.02988268
-0.4661014 -0.34125337 -0.40176326 -0.30183074 0.1880544 -0.3367792 0.3800316 -0.44549435
0.114666395 -0.47514078 -0.39992854 0.43272159 -0.05917688 0.13622622 -0.39539307 0.0723095
-0.27083838 0.014415362 0.25532135 -0.239285 -0.26850134 -0.34395364 -0.111114666 -0.41714254
-0.3771837 -0.4802475 0.24753018 -0.35533947 0.31282073 -0.20235279 0.27480695 0.26225132
0.33310732 -0.35647732 -0.30885956 -0.54958266 -0.2983215 0.12568904 0.19195813 0.2027358
0.27073726 0.1991618 0.4819609 0.39467993 -0.026010191 -0.36140704 0.21242896 -0.44396102
-0.3291928 -0.08233447 0.0848299 -0.17283744 0.29931507 -0.18793438 -0.061008714 -0.36261553
-0.40281177 -0.39701483 -0.2920978 -0.031878695 -0.03714094 0.43739766 -0.3737192 -0.19421262
-0.22123893 0.4209663 0.33491993 -0.60476047 -0.443612 -0.37486252 0.057688896 0.3620106
-0.363864 0.44399247 -0.043795917 0.2664872 0.052829582 -0.085194156 0.4773657 -0.28808987
-0.32111603 0.06686512 0.42216685 -0.45315772 -0.48233652 -0.30770516 0.092803724 -0.33225957
-0.4990482 0.07804958 -0.36408123 -0.40234807 0.1582608 0.12616129 -0.46326596 0.1926557
0.50554514 0.096755885 -0.21794689 -0.54154944 -0.26529816 -0.44260058 -0.21789835 0.027632816
0.25755626 0.2763029 -0.12407397 0.28638232 0.09823964 0.36247647 0.33789146 -0.47190896
0.48841935 0.13885179 -0.3918538 0.3506415 -0.42569184 0.31488138 -0.16909038 -0.12514102
-0.5624847 -0.022176014 0.26723948 -0.27074954 -0.45219895 -0.5001434 0.11469512 0.27481472
0.3009586 -0.2621416 -0.5551856 0.10940023 0.45524386 0.030218748 -0.46105847 -0.33579794
0.19894247 -0.43086436 0.07331663 -0.43030345 -0.12420489 0.36019626 -0.3918181 0.40993583
0.16925651 -0.060137462 -0.45801002 0.48093677 -0.2734139 0.47332036 -0.10192748 0.15876691
0.12857151 0.118384145 0.17525557 -0.38422483 0.20869406 0.17993312 -0.28910786 -0.14664422
0.12544672 0.15575632 0.20803851 -0.038229663 -0.49951538 -0.2284495 -0.48609674 -0.337599
-0.35096797 -0.39047703 0.4941013 -0.26634043 -0.1784853 0.43229365 -0.18065745 0.202279

l3.bias f4 [33]
00000000: d929 8abe 0333 2fbe 8c27 2dbe 294f 0ebe
00000010: 2730 59be 47ed 63be 2327 50bd 1e40 06be
00000020: de6b 38be 0b48 723c 148c e33d 6d3e 41bd
00000030: dbf0 373e 7e83 8d3e 9ac2 463e 97d7 2ebe
00000040: 41ad f93d afe1 943d 07cf e93c 4370 6ebe
00000050: b3dc 56be 35b6 d0bd e3ca acbd c1f1 193e
00000060: db46 53be 4bc8 2bbe 0d35 b6bc f073 ecbd
00000070: e619 99be cfd8 f0bd b105 833e 81eb df3d
00000080: 4b5f 023e
-0.26985052 -0.17109303 -0.16909617 -0.13897385 -0.21209775 -0.22258483 -0.050818574 -0.13110396
-0.18009898 0.014787684 0.11110702 -0.047178674 0.17962973 0.27639383 0.19410172 -0.17074428
0.12191249 0.07269608 0.028541101 -0.23285012 -0.20982628 -0.10191003 -0.08437135 0.15033628
-0.20632498 -0.16775624 -0.022242093 -0.11545551 -0.2990257 -0.11760103 0.2559028 0.10933591
0.12731664
